logs/dr/2020_9_24/14/model.pth (torch_old, 13778 bytes, 3 tensors)

encoder.layers.0.linear.bias f4 [500]
0.0 0.0 0.0 0.0 0.0 0.0 0.0 0.0
0.0 0.0 0.0 0.0 0.0 0.0 0.0 0.0
0.0 0.0 0.0 0.0 0.0 0.0 0.0 0.0
0.0 0.0 0.0 0.0 0.0 0.0 0.0 0.0
0.0 0.0 0.0 0.0 0.0 0.0 0.0 0.0
0.0 0.0 0.0 0.0 0.0 0.0 0.0 0.0
0.0 0.0 0.0 0.0 0.0 0.0 0.0 0.0
0.0 0.0 0.0 0.0 0.0 0.0 0.0 0.0
0.0 0.0 0.0 0.0 0.0 0.0 0.0 0.0
0.0 0.0 0.0 0.0 0.0 0.0 0.0 0.0
0.0 0.0 0.0 0.0 0.0 0.0 0.0 0.0
0.0 0.0 0.0 0.0 0.0 0.0 0.0 0.0
0.0 0.0 0.0 0.0 0.0 0.0 0.0 0.0
0.0 0.0 0.0 0.0 0.0 0.0 0.0 0.0
0.0 0.0 0.0 0.0 0.0 0.0 0.0 0.0
0.0 0.0 0.0 0.0 0.0 0.0 0.0 0.0
0.0 0.0 0.0 0.0 0.0 0.0 0.0 0.0
0.0 0.0 0.0 0.0 0.0 0.0 0.0 0.0
0.0 0.0 0.0 0.0 0.0 0.0 0.0 0.0
0.0 0.0 0.0 0.0 0.0 0.0 0.0 0.0
0.0 0.0 0.0 0.0 0.0 0.0 0.0 0.0
0.0 0.0 0.0 0.0 0.0 0.0 0.0 0.0
0.0 0.0 0.0 0.0 0.0 0.0 0.0 0.0
0.0 0.0 0.0 0.0 0.0 0.0 0.0 0.0
0.0 0.0 0.0 0.0 0.0 0.0 0.0 0.0
0.0 0.0 0.0 0.0 0.0 0.0 0.0 0.0
0.0 0.0 0.0 0.0 0.0 0.0 0.0 0.0
0.0 0.0 0.0 0.0 0.0 0.0 0.0 0.0
0.0 0.0 0.0 0.0 0.0 0.0 0.0 0.0
0.0 0.0 0.0 0.0 0.0 0.0 0.0 0.0
0.0 0.0 0.0 0.0 0.0 0.0 0.0 0.0
0.0 0.0 0.0 0.0 0.0 0.0 0.0 0.0
00000000: 0000 0000 0000 0000 0000 0000 0000 0000
00000010: 0000 0000 0000 0000 0000 0000 0000 0000
00000020: 0000 0000 0000 0000 0000 0000 0000 0000
00000030: 0000 0000 0000 0000 0000 0000 0000 0000
00000040: 0000 0000 0000 0000 0000 0000 0000 0000
00000050: 0000 0000 0000 0000 0000 0000 0000 0000
00000060: 0000 0000 0000 0000 0000 0000 0000 0000
00000070: 0000 0000 0000 0000 0000 0000 0000 0000
00000080: 0000 0000 0000 0000 0000 0000 0000 0000
00000090: 0000 0000 0000 0000 0000 0000 0000 0000
000000a0: 0000 0000 0000 0000 0000 0000 0000 0000
000000b0: 0000 0000 0000 0000 0000 0000 0000 0000
000000c0: 0000 0000 0000 0000 0000 0000 0000 0000
000000d0: 0000 0000 0000 0000 0000 0000 0000 0000
000000e0: 0000 0000 0000 0000 0000 0000 0000 0000
000000f0: 0000 0000 0000 0000 0000 0000 0000 0000
00000100: 0000 0000 0000 0000 0000 0000 0000 0000
00000110: 0000 0000 0000 0000 0000 0000 0000 0000
00000120: 0000 0000 0000 0000 0000 0000 0000 0000
00000130: 0000 0000 0000 0000 0000 0000 0000 0000
00000140: 0000 0000 0000 0000 0000 0000 0000 0000
00000150: 0000 0000 0000 0000 0000 0000 0000 0000
00000160: 0000 0000 0000 0000 0000 0000 0000 0000
00000170: 0000 0000 0000 0000 0000 0000 0000 0000
00000180: 0000 0000 0000 0000 0000 0000 0000 0000
00000190: 0000 0000 0000 0000 0000 0000 0000 0000
000001a0: 0000 0000 0000 0000 0000 0000 0000 0000
000001b0: 0000 0000 0000 0000 0000 0000 0000 0000
000001c0: 0000 0000 0000 0000 0000 0000 0000 0000
000001d0: 0000 0000 0000 0000 0000 0000 0000 0000
000001e0: 0000 0000 0000 0000 0000 0000 0000 0000
000001f0: 0000 0000 0000 0000 0000 0000 0000 0000
00000200: 0000 0000 0000 0000 0000 0000 0000 0000
00000210: 0000 0000 0000 0000 0000 0000 0000 0000
00000220: 0000 0000 0000 0000 0000 0000 0000 0000
00000230: 0000 0000 0000 0000 0000 0000 0000 0000
00000240: 0000 0000 0000 0000 0000 0000 0000 0000
00000250: 0000 0000 0000 0000 0000 0000 0000 0000
00000260: 0000 0000 0000 0000 0000 0000 0000 0000
00000270: 0000 0000 0000 0000 0000 0000 0000 0000
00000280: 0000 0000 0000 0000 0000 0000 0000 0000
00000290: 0000 0000 0000 0000 0000 0000 0000 0000
000002a0: 0000 0000 0000 0000 0000 0000 0000 0000
000002b0: 0000 0000 0000 0000 0000 0000 0000 0000
000002c0: 0000 0000 0000 0000 0000 0000 0000 0000
000002d0: 0000 0000 0000 0000 0000 0000 0000 0000
000002e0: 0000 0000 0000 0000 0000 0000 0000 0000
000002f0: 0000 0000 0000 0000 0000 0000 0000 0000
00000300: 0000 0000 0000 0000 0000 0000 0000 0000
00000310: 0000 0000 0000 0000 0000 0000 0000 0000
00000320: 0000 0000 0000 0000 0000 0000 0000 0000
00000330: 0000 0000 0000 0000 0000 0000 0000 0000
00000340: 0000 0000 0000 0000 0000 0000 0000 0000
00000350: 0000 0000 0000 0000 0000 0000 0000 0000
00000360: 0000 0000 0000 0000 0000 0000 0000 0000
00000370: 0000 0000 0000 0000 0000 0000 0000 0000
00000380: 0000 0000 0000 0000 0000 0000 0000 0000
00000390: 0000 0000 0000 0000 0000 0000 0000 0000
000003a0: 0000 0000 0000 0000 0000 0000 0000 0000
000003b0: 0000 0000 0000 0000 0000 0000 0000 0000
000003c0: 0000 0000 0000 0000 0000 0000 0000 0000
000003d0: 0000 0000 0000 0000 0000 0000 0000 0000
000003e0: 0000 0000 0000 0000 0000 0000 0000 0000
000003f0: 0000 0000 0000 0000 0000 0000 0000 0000

encoder.layers.0.linear.weight f4 [500, 3]
-0.079888314 -0.0780239 -0.07416845 -0.08024469 -0.07999373 -0.074264035 -0.050063998 -0.048947018
-0.049685884 -0.025050279 -0.022670563 -0.022941994 -0.028809026 -0.0002601317 0.0380215 0.0019332601
0.0018967019 0.0021473316 -0.008401949 -0.0072107506 -0.0076640523 -0.037156492 -0.035517633 -0.034150198
0.023924422 0.041938547 0.08918865 -0.08292797 -0.052370004 -0.038092315 -0.014957081 -0.015315905
-0.0138313705 -0.011850878 -0.011984345 -0.011586163 1.949276e-07 1.935116e-07 2.1385888e-07 -0.14541191
-0.12379345 -0.13127124 -0.04154606 -0.025891826 -0.018234346 -0.07984477 -0.034629155 0.007672991
0.03838178 0.037604954 0.043567844 0.042266354 0.041415893 0.04768829 -0.04282311 -0.003052577
0.0487762 -0.053223114 -0.045579467 -0.048425276 -0.03025322 -0.02782388 -0.028943334 -0.0830723
-0.0711872 -0.075665966 -0.025214115 0.004510725 0.04560764 -0.038036503 -0.03253214 -0.034561362
-0.013931855 -0.013772256 -0.013378345 -0.06614785 -0.06660211 -0.06539575 -0.024826678 0.0035622434
0.042425524 -0.0005380725 0.008463174 0.024483461 -0.0052325125 -0.00518346 -0.0049188496 -0.04556991
-0.043820005 -0.042988364 -0.094507426 -0.0537867 -0.028224822 -0.09709289 -0.08121796 -0.08553381
-0.008709696 -0.0085034715 -0.0080746375 1.5170653e-07 1.4867328e-07 1.71652e-07 -0.017781047 -0.017766709
-0.017084284 -0.0038472689 0.026726637 0.08072512 -0.093248025 -0.084291495 -0.086466886 -0.053796653
-0.05309989 -0.050026696 0.025373226 0.042875852 0.090142496 -0.0466591 -0.042542893 -0.044048492
-0.013980278 -0.012417149 -0.01304015 -0.050823916 -0.046182074 -0.047081288 -0.024951225 -0.021601036
-0.022799684 -0.0036542253 -0.0035086314 -0.0035304197 -0.01670244 -0.006779244 0.0029950484 -0.008046692
0.01547177 0.054162513 -0.097880825 -0.053408377 -0.023147838 -0.0012830952 0.018388959 0.05353488
-0.0050811316 0.009367243 0.032761633 0.0005442489 0.029273998 0.08223029 -0.036492266 -0.03424318
-0.034746535 0.039353848 0.039641436 0.04933139 -5.0546497e-08 -4.9588696e-08 -4.9977807e-08 0.006247775
0.0061339573 0.0071293074 -0.08071528 -0.035132997 0.0073655783 -0.122932054 -0.1090766 -0.11437129
-0.014987832 0.0042724595 0.031675175 1.263208e-06 1.2445602e-06 1.4057931e-06 -0.042341955 -0.010541375
0.026853798 -0.05452592 -0.046791468 -0.04971653 -0.028339438 -0.028785761 -0.026098762 0.0032494953
0.013860086 0.03489814 -0.0017916604 -0.0015910196 -0.0016699355 -0.089802854 -0.075140424 -0.079142064
-0.024161823 -0.021347033 -0.0221045 0.01409737 0.027681753 0.060908653 3.0408668e-05 3.1437572e-05
3.5979632e-05 -0.0011219411 -0.0010574458 -0.0010814047 0.07050341 0.06974527 0.08277869 0.010966482
0.011588843 0.016677046 0.008937595 0.008756292 0.010038476 -0.0728555 -0.027051747 0.019681022
-0.038249716 -0.03720084 -0.03773726 -0.069166355 -0.033722937 -0.0045538945 -0.06524031 -0.035197165
-0.014366396 -2.0128084e-07 -1.8035848e-07 -1.841072e-07 -0.053472776 -0.04580988 -0.04866698 -0.037245333
-0.03257025 -0.034367062 -0.040111613 -0.040663067 -0.037880123 -0.06765787 -0.050247647 -0.04983684
-0.08492857 -0.08496704 -0.08015427 -0.074944176 -0.07459474 -0.07376363 -0.02016432 -0.017281832
-0.01836453 -0.049527127 -0.05033254 -0.045907777 -0.014689899 0.009811271 0.046910077 -0.002307162
00000000: 7c9c a3bd ffca 9fbd a1e5 97bd 5457 a4bd
00000010: c1d3 a3bd be17 98bd e80f 4dbd ab7c 48bd
00000020: 6d83 4bbd 3e36 cdbc 9eb7 b9bc d9f0 bbbc
00000030: e800 ecbc 4962 88b9 6fbc 1b3d 7265 fd3a
00000040: c19a f83a 3fba 0c3b 54a8 09bc 2948 ecbb
00000050: bb22 fbbb 6831 18bd f07a 11bd 14e1 0bbd
00000060: 26fd c33c c1c7 2b3d 8aa8 b63d 24d6 a9bd
00000070: ee81 56bd b006 1cbd 8b0e 75bc 90ef 7abc
00000080: f99c 62bc 2f2a 42bc fc59 44bc e4d3 3dbc
00000090: 4a4d 5134 10c8 4f34 15a1 6534 dce6 14be
000000a0: 6c87 fdbd f86b 06be 342c 2abd 181b d4bc
000000b0: 3260 95bc a885 a3bd 4dd7 0dbd b76d fb3b
000000c0: 3736 1d3d a707 1a3d 3274 323d 7c1f 2d3d
000000d0: b6a3 293d cc54 433d 4967 2fbd be0d 48bb
000000e0: 8dc9 473d 7b00 5abd 89b1 3abd 9559 46bd
000000f0: 9ad5 f7bc e8ee e3bc 921a edbc cf21 aabd
00000100: 98ca 91bd c2f6 9abd d58d cebc b4ce 933b
00000110: 14cf 3a3d 2acc 1bbd 6c40 05bd 3790 0dbd
00000120: 6f42 64bc 07a5 61bc d930 5bbc 8678 87bd
00000130: b066 88bd 35ee 85bd 5161 cbbc 8774 693b
00000140: 63c6 2d3d 6f0d 0dba 20a9 0a3c 8a91 c83c
00000150: 7f75 abbb 04da a9bb 4d2e a1bb 84a7 3abd
00000160: 9b7c 33bd 9114 30bd 1c8d c1bd 714f 5cbd
00000170: be37 e7bc a3d8 c6bd 9a55 a6bd 5a2c afbd
00000180: 1db3 0ebc 2552 0bbc 7c4b 04bc c6e4 2234
00000190: 00a3 1f34 584f 3834 8fa9 91bc 7d8b 91bc
000001a0: 57f4 8bbc 7622 7cbb d2f1 da3c 3653 a53d
000001b0: d2f8 bebd 05a1 acbd 8d15 b1bd e159 5cbd
000001c0: 457f 59bd cbe8 4cbd 83db cf3c 979e 2f3d
000001d0: a19c b83d 9d1d 3fbd 7541 2ebd 316c 34bd
000001e0: 890d 65bc 4c71 4bbc 5aa6 55bc bd2c 50bd
000001f0: 6a29 3dbd 4fd8 40bd 8366 ccbc a8f4 b0bc
00000200: 67c6 babc ba7b 6fbb 11f1 65bb 9d5e 67bb
00000210: 8ed3 88bc 6c24 debb 9348 443b 46d6 03bc
00000220: 4f7d 7d3c 83d9 5d3d be75 c8bd bec2 5abd
00000230: 89a0 bdbc 882d a8ba 71a4 963c 6447 5b3d
00000240: 9f7f a6bb 1179 193c 1031 063d edab 0e3a
00000250: 06d0 ef3c 5b68 a83d ea78 15bd 9442 0cbd
00000260: 6252 0ebd 8031 213d 0f5f 223d b60f 4a3d
00000270: 7618 59b3 59fb 54b3 2ea7 56b3 23ba cc3b
00000280: 5dff c83b f79c e93b 0d4e a5bd 9ee7 0fbd
00000290: f35a f13b cdc3 fbbd 8d63 dfbd 7f3b eabd
000002a0: 868f 75bc fdff 8b3b d4bd 013d 7f8b a935
000002b0: c30a a735 afae bc35 c26e 2dbd bbb5 2cbc
000002c0: 7ffc db3c 9256 5fbd 69a8 3fbd 8fa3 4bbd
000002d0: 1c28 e8bc 1ed0 ebbc 12cd d5bc 7cf5 543b
000002e0: 6a15 633c 5af1 0e3d 26d6 eaba c289 d0ba
000002f0: bde1 daba 8fea b7bd 39e3 99bd 3c15 a2bd
00000300: 04ef c5bc f9df aebc 7f14 b5bc a8f8 663c
00000310: d8c4 e23c 5a7b 793d 1e16 ff37 d6db 0338
00000320: d6e8 1638 190e 93ba fe99 8aba ecbd 8dba
00000330: 1864 903d 9cd6 8e3d e087 a93d c2ac 333c
00000340: 21df 3d3c 4d9e 883c fe6e 123c 8d76 0f3c
00000350: 6c78 243c 4435 95bd a09b ddbc 183a a13c
00000360: bcab 1cbd e85f 18bd 6392 1abd 17a7 8dbd
00000370: 1021 0abd d638 95bb b69c 85bd e72a 10bd
00000380: 0861 6bbc a81f 58b4 90a8 41b4 00af 45b4
00000390: 4506 5bbd 24a3 3bbd 0757 47bd 908e 18bd
000003a0: 6268 05bd 7ac4 0cbd 134c 24bd 518e 26bd
000003b0: 3028 1bbd 3690 8abd 7ad0 4dbd b721 4cbd
000003c0: 08ef adbd 3303 aebd ec27 a4bd 557c 99bd
000003d0: 21c5 98bd 6311 97bd a52f a5bc a192 8dbc
000003e0: 3671 96bc f5dc 4abd 7e29 4ebd cb09 3cbd
000003f0: e7ad 70bc 74bf 203c c824 403d c133 17bb

decoder.cls.linear.weight f4 [2, 500]
0.014565442 0.0077257603 -0.021437077 -0.0119655095 0.04018836 0.018759068 0.02017093 -0.004399579
-0.042575467 0.009032991 0.03448956 0.03188541 0.01360666 -0.034381174 0.02150556 -0.029361699
0.03463192 0.026728537 0.03308594 -0.034213584 0.0090130195 -0.022936316 0.03484011 0.02719858
0.0438908 0.0022424199 -0.015261646 0.036284465 0.030974839 0.0011486858 0.019072834 -0.019498583
0.025648776 0.028935295 0.029109191 -0.023529984 0.016445216 -0.008704606 0.043580707 -0.011986889
-0.027502581 -0.03809799 0.039851423 -0.041022833 -0.009906974 -0.018065251 -0.025530431 -0.009971235
-0.010921802 -0.038660668 -0.019568965 0.019843396 0.017425887 0.039979618 -0.009353533 -0.037901107
0.024013098 -0.015302185 -0.012946237 0.02112547 0.04458422 0.03824957 0.008881468 -0.008627091
0.009604208 -0.012460783 0.031857964 0.01050799 0.02848303 -0.0015061274 0.005609814 0.029846381
-0.020194933 0.039347332 -0.026081443 0.033320334 -0.02986423 -0.036363065 -0.03709207 -0.002109632
0.017337736 0.008076463 -0.032686222 -0.015814364 -0.030290486 0.014984243 0.010474447 0.018484917
0.036796916 -0.018509468 -0.028901309 -0.02922719 -0.022911847 0.032236356 0.034237098 -0.015482994
-0.004146613 -0.023743605 -0.010457631 -0.040088248 0.020719338 0.021103207 -0.03232988 -0.0023176335
-0.011980079 0.023934145 0.031610604 0.006074127 -0.036783073 -0.03532257 0.040492583 -0.009696145
-0.0037222654 -0.020097138 -0.025027828 0.022264693 -0.0011737831 0.007662531 -0.03657963 0.036395516
0.029094506 0.044443633 0.03467607 0.019250061 0.0052474216 -0.037729602 -0.032461666 0.0005508736
0.026315618 0.0010622144 0.022144813 0.0027555525 -0.007697385 0.008484289 -6.568059e-05 -0.023664298
-0.016051129 0.03510594 0.03119095 -0.0066219717 -0.03272058 0.035804156 -0.026098706 0.001962293
0.014317427 -0.00083729625 -0.0128248185 0.036648784 0.025860894 -0.043119404 -0.024418535 0.0012405589
0.018296514 0.018240448 -0.011548258 -0.03237651 0.04207037 -0.033049144 -0.03333033 0.043861527
0.016731746 0.019851092 -0.026566349 -0.027765976 0.013046186 -0.0075488687 0.035183918 -0.01502732
0.04347815 0.016912844 -0.019676656 -0.035616122 0.02700733 -0.021257421 -0.03581594 0.006283574
0.022802282 -0.0099378675 0.0046113357 -0.019654036 0.034379985 0.04092334 0.029192474 -0.043240197
-0.04085208 0.024831336 0.038759436 0.023880597 0.0044590384 -0.008911841 -0.03356882 -0.0062415004
0.04222283 -0.0046434775 -0.04292059 0.0064733326 -0.040632863 0.03174692 -0.0025964864 0.005440112
0.008124735 -0.006093666 0.009318318 -0.032757003 0.007008426 0.017146073 -0.031774342 -0.04272858
0.000802692 0.012086421 -0.012589622 -0.028184794 -0.0028690733 0.021815915 -0.026060103 -0.04171408
0.04320054 -0.04218604 -0.0068934523 0.020996656 -0.02777787 -0.003983561 -0.001768738 0.006208636
0.010486186 -0.021423781 0.030493114 0.005632922 0.044173833 0.003050156 -0.022030775 0.0014944412
0.042256113 -0.029465493 -0.003884025 -0.025662689 -0.022652064 0.033738215 0.039359365 0.02552488
-0.030054819 -0.023195036 -0.03762249 -0.015013197 0.013369348 0.03136981 -0.019738669 -0.025424639
0.014916692 0.036384847 0.003755007 0.0322737 0.038008634 -0.007775888 0.041534785 0.03262919
00000000: e4a3 6e3c 6028 fd3b cf9c afbc fc0a 44bc
00000010: 8d9c 243d 9eac 993c 823d a53c 582a 90bb
00000020: 9d63 2ebd 1cff 133c ed44 0d3d 479a 023d
00000030: 78ee 5e3c 46d3 0cbd 6e2c b03c f287 f0bc
00000040: 33da 0d3d cef5 da3c 1f85 073d 8b23 0cbd
00000050: 58ab 133c f1e4 bbbc 81b4 0e3d 8ecf de3c
00000060: d7c6 333d 90f5 123b fc0b 7abc 059f 143d
00000070: f2be fd3c 808f 963a a23e 9c3c 7ebb 9fbc
00000080: 621d d23c b609 ed3c 6676 ee3c f4c1 c0bc
00000090: 1eb8 863c c49d 0ebc af81 323d a864 44bc
000000a0: 184d e1bc a30c 1cbd 3f3b 233d 8f07 28bd
000000b0: dc50 22bc 94fd 93bc 3225 d1bc 645e 23bc
000000c0: 5cf1 32bc a65a 1ebd 184f a0bc 9e8e a23c
000000d0: bcc0 8e3c abc1 233d 903f 19bc 313e 1bbd
000000e0: 1eb7 c43c 04b6 7abc 741c 54bc 520f ad3c
000000f0: f19d 363d 95ab 1c3d 9483 113c a458 0dbc
00000100: f85a 1d3c 5028 4cbc 7f7d 023d b429 2c3c
00000110: 3e55 e93c 4069 c5ba 88d2 b73b 6680 f43c
00000120: d86f a5bc ab2a 213d c0a8 d5bc e77a 083d
00000130: d4a5 f4bc 70f1 14bd dbed 17bd c041 0abb
00000140: de07 8e3c 2453 043c fde1 05bd 208d 81bc
00000150: c123 f8bc 7880 753c 049d 2b3c ae6d 973c
00000160: 5db8 163d 2ba1 97bc 70c2 ecbc dc6d efbc
00000170: a0b1 bbbc 450a 043d 333c 0c3d 62ac 7dbc
00000180: 50e0 87bb f381 c2bc 7c56 2bbc 9333 24bd
00000190: 9abb a93c a2e0 ac3c 566c 04bd 70e3 17bb
000001a0: 1848 44bc 8a11 c43c 1f7a 013d 7809 c73b
000001b0: d9a9 16bd 66ae 10bd 8ddb 253d 94dc 1ebc
000001c0: 40f1 73bb c1a2 a4bc 2907 cdbc 7264 b63c
000001d0: a0d9 99ba f815 fb3b 86d4 15bd 7713 153d
000001e0: 9a57 ee3c 870a 363d 7f08 0e3d 4eb2 9d3c
000001f0: 90f2 ab3b 5b8a 1abd 86f6 04bd 8068 103a
00000200: da93 d73c 003a 8b3a 0a69 b53c 8096 343b
00000210: 583a fcbb b001 0b3c 00be 89b8 a1db c1bc
00000220: a87d 83bc 3fcb 0f3d 2a84 ff3c 20fd d8bb
00000230: 0406 06bd 61a7 123d f4cc d5bc d099 003b
00000240: a493 6a3c 007e 5bba 301f 52bc 091d 163d
00000250: 3ada d33c f99d 30bd 6109 c8bc 409a a23a
00000260: 92e2 953c fe6c 953c e834 3dbc 3b9d 04bd
00000270: fb51 2c3d 8a5e 07bd 6285 08bd 25a8 333d
00000280: 0411 893c c29e a23c aca1 d9bc 7975 e3bc
00000290: acbf 553c 805c f7bb 031d 103d 2635 76bc
000002a0: 2516 323d ce8c 8a3c f030 a1bc 36e2 11bd
000002b0: 7a3e dd3c 0b24 aebc bcb3 12bd 70e6 cd3b
000002c0: dacb ba3c 70d2 22bc b01a 973b 8001 a1bc
000002d0: 07d2 0c3d 3b9f 273d 0e25 ef3c a21c 31bd
000002e0: 8354 27bd 166b cb3c 37c2 1e3d 3ea1 c33c
000002f0: 201d 923b f802 12bc 767f 09bd 8085 ccbb
00000300: d9f1 2c3d 5028 98bb 80cd 2fbd 401e d43b
00000310: a56e 26bd 0f09 023d d029 2abb f842 b23b
00000320: 9c1d 053c 60ad c7bb dcab 183c 352c 06bd
00000330: f0a6 e53b ec75 8c3c d025 02bd 2a04 2fbd
00000340: c06b 523a 2006 463c b444 4ebc cce3 e6bc
00000350: 1007 3cbb 4ab7 b23c ff7b d5bc 62dc 2abd
00000360: 0df3 303d 45cb 2cbd 78e2 e1bb 2e01 ac3c
00000370: 6a8e e3bc 8888 82bb 00d5 e7ba d071 cb3b
00000380: 40ce 2b3c ed80 afbc b2cc f93c 6094 b83b
00000390: 9fef 343d 20e5 473b e279 b4bc 20e1 c33a
000003a0: bf14 2d3d 9e61 f1bc 208b 7ebb 8f3a d2bc
000003b0: d290 b9bc 1531 0a3d 4937 213d 8e19 d13c
000003c0: 8635 f6bc 8403 bebc 0a1a 1abd eaf9 75bc
000003d0: 1c0b 5b3c a17d 003d fdb2 a1bc 5547 d0bc
000003e0: 2465 743c 4708 153d 9016 763b 6d31 043d
000003f0: f1ae 1b3d e0cc febb 6120 2a3d 2fa6 053d
