logs/dr/2020_9_24/15/model.pth (torch_old, 2155 bytes, 3 tensors)

encoder.layers.0.linear.bias f4 [16]
0	0x00000000	0.0
1	0x00000000	0.0
2	0x00000000	0.0
3	0x00000000	0.0
4	0x00000000	0.0
5	0x00000000	0.0
6	0x00000000	0.0
7	0x00000000	0.0
8	0x00000000	0.0
9	0x00000000	0.0
10	0x00000000	0.0
11	0x00000000	0.0
12	0x00000000	0.0
13	0x00000000	0.0
14	0x00000000	0.0
15	0x00000000	0.0

encoder.layers.0.linear.weight f4 [16, 3]
0	0xbed1dcae	-0.40988678
1	0xbec102d4	-0.3769747
2	0xbec37be3	-0.38180456
3	0xbeb1c0c3	-0.34717378
4	0xbeb5fe4c	-0.35545576
5	0xbea4073b	-0.32036766
6	0xbe752523	-0.23939948
7	0xbe53c5ac	-0.20680875
8	0xbe60163c	-0.21883482
9	0x3b912a35	0.0044300803
10	0x3b95ae3b	0.004567889
11	0x3ba4a32a	0.0050243335
12	0x3d0aeef4	0.03391929
13	0x3d16bf7c	0.036803707
14	0x3d73e87b	0.059547883
15	0x3e08fab1	0.13376881
16	0x3e080a43	0.13285165
17	0x3e1dab93	0.15397482
18	0xbcc79d48	-0.02436699
19	0xbcb881c5	-0.022522816
20	0xbcb718c5	-0.022350678
21	0xbe066303	-0.13123707
22	0xbde745f1	-0.11292637
23	0xbdf58178	-0.11987585
24	0x3ea35e19	0.31907728
25	0x3e9e4e2e	0.3091902
26	0x3eb1c31c	0.3471917
27	0xbea7a833	-0.32745513
28	0xbe75a503	-0.23988728
29	0xbe7eadfd	-0.24871059
30	0x3a43092e	0.00074400275
31	0x3a43518c	0.0007450811
32	0x3a4b5ab6	0.00077573524
33	0xbc9e25b9	-0.019305097
34	0xbc9821db	-0.018570831
35	0xbc99671e	-0.018725928
36	0x3cca54ea	0.024698693
37	0x3cca3ce6	0.024687242
38	0x3cd25a62	0.025677864
39	0xbf43d548	-0.76497316
40	0xbf157616	-0.5838331
41	0xbf1d6862	-0.614874
42	0xbe2ed588	-0.17073643
43	0xbde1a1c4	-0.110171825
44	0xbda8013f	-0.08203363
45	0xbe374fb9	-0.17901506
46	0xbe26a03a	-0.16272059
47	0xbe2e147b	-0.17

decoder.cls.linear.weight f4 [2, 16]
0	0x3e448a26	0.19193324
1	0x3e1dd718	0.15414083
2	0x3e016f82	0.12640193
3	0x3e4c3396	0.19941553
4	0x3dbc45cc	0.09193
5	0x3e081cd6	0.1329225
6	0x3e546ff4	0.20745832
7	0xbd4e5178	-0.050370663
8	0xbe47a7e4	-0.19497639
9	0xbdfbcc34	-0.12294808
10	0xbd08b1c8	-0.03337267
11	0xbce10c40	-0.027471662
12	0xbade1600	-0.0016943812
13	0x3e12b4d6	0.14326796
14	0x3da43eb8	0.08019775
15	0xbe3d48c8	-0.18484795
16	0xbd99cebc	-0.075101346
17	0xbd70e548	-0.05881241
18	0x3e1bce1a	0.1521534
19	0xbdb9be30	-0.090694785
20	0xbdd63680	-0.10459614
21	0xbd24a3a0	-0.040195107
22	0xbd823cec	-0.06359276
23	0xbd7c2018	-0.061554044
24	0xbe7a7b1e	-0.24461028
25	0x3e6417be	0.22274682
26	0x3e083fca	0.13305584
27	0xbdf24584	-0.11829665
28	0xbe1fba0e	-0.15598318
29	0x3c0e7f80	0.008697391
30	0x3e11dcb2	0.14244345
31	0xbe37b758	-0.17941034
