logs/dr/2020_9_24/30/model.pth (torch_old, 11094 bytes, 2 tensors)

encoder.layers.0.linear.weight f4 [500, 3]
00000000: 6188 2a44 5ee2 2a44 8297 26c4 04b2 e3bc
00000010: dfec c9bf 767f efbd 523e 2a44 eedc 2a44
00000020: 75a9 2844 e18a 2a44 bdc6 2a44 fb82 2844
00000030: e3ad 2a44 86c1 2a44 08f7 27c4 e2b2 2a44
00000040: e6c0 2a44 d965 2844 0f88 2a44 cac7 2a44
00000050: f584 2844 d79d 2a44 eec6 2a44 4b71 2844
00000060: aca9 2a44 1cbf 2a44 8a73 2844 aa9a 2a44
00000070: fcc2 2a44 c831 28c4 54af 2a44 74c1 2a44
00000080: 3d64 2844 e280 2a44 c0cb 2a44 0681 2844
00000090: a7b1 2a44 1bc0 2a44 9c5d 2844 ce93 2a44
000000a0: 6cde 2a44 2b9e 26c4 c99f 2a44 5cc1 2a44
000000b0: 2e44 28c4 3daa 2a44 48bf 2a44 d44f 28c4
000000c0: dda0 2a44 a8c1 2a44 df69 2844 b9a8 2a44
000000d0: adc0 2a44 4263 2844 d2b0 2a44 f4bc 2a44
000000e0: 6c58 28c4 7da1 2a44 48d9 2a44 16b8 26c4
000000f0: 4b91 2a44 13c5 2a44 5b7e 2844 f88e 2a44
00000100: cfe0 2a44 af9c 26c4 c9b0 2a44 a9bd 2a44
00000110: 515c 28c4 d8a0 2a44 42c5 2a44 a66d 2844
00000120: 9376 2a44 d3ca 2a44 178e 2844 d53d 8f3c
00000130: 1532 b0bf 6894 edbd 90b7 2a44 74bd 2a44
00000140: d159 28c4 3b18 59bc e71c 9ebf 879c 30be
00000150: 977a 2a44 c5c9 2a44 5f8a 2844 e122 2a44
00000160: 0ce6 2a44 84b1 2844 36a1 2a44 05c1 2a44
00000170: 9344 28c4 9a9e 2a44 2bc3 2a44 251b 28c4
00000180: e38e 2a44 33c6 2a44 627e 2844 ef97 2a44
00000190: 6dc4 2a44 ba78 2844 68a0 2a44 43c5 2a44
000001a0: 3c67 2844 f9a7 2a44 34bd 2a44 dd5a 28c4
000001b0: 0af4 233e a8eb cfbf efb3 66bd 5ba2 2a44
000001c0: afd9 2a44 2bb9 26c4 db9e 2a44 c8bf 2a44
000001d0: 7981 2844 259a 2a44 cdc4 2a44 0e1e 28c4
000001e0: e56d 2a44 e5cf 2a44 6284 2844 173b 2a44
000001f0: 64de 2a44 b8ab 2844 a51b 2a44 d7e8 2a44
00000200: 7fb7 2844 468a 2a44 d4c6 2a44 c383 2844
00000210: f832 bebd a002 afbf ede0 64be fe9f 2a44
00000220: 6dbf 2a44 6b59 28c4 219a 2a44 9fc2 2a44
00000230: c02f 28c4 ceb0 2a44 63bd 2a44 515e 28c4
00000240: f0cd 90be 78a7 efbf 5d87 44bd 78aa 2a44
00000250: efbc 2a44 e259 28c4 2688 2a44 acc6 2a44
00000260: 6183 2844 7eb8 2a44 e2bd 2a44 d481 2844
00000270: 889d 2a44 acc3 2a44 f06f 2844 c599 2a44
00000280: b0c1 2a44 4185 2844 84aa 2a44 4cbf 2a44
00000290: a14e 28c4 0e77 2a44 22eb 2a44 2677 26c4
000002a0: 6d9f 2a44 15c0 2a44 b858 28c4 2b79 2a44
000002b0: fcc9 2a44 2e8a 2844 f49c 2a44 b8c1 2a44
000002c0: 3c27 28c4 b16f a23d ea4b b9bf 1548 5bbe
000002d0: 557b 2a44 f6c9 2a44 ce8c 2844 59b3 2a44
000002e0: e7bd 2a44 a05d 28c4 54a6 2a44 c8c3 2a44
000002f0: 9b60 2844 149a 2a44 6bc5 2a44 311d 28c4
00000300: b574 2a44 a5d0 2a44 4c81 2844 8faa 2a44
00000310: 0bc0 2a44 846d 2844 5a9e 2a44 2bc2 2a44
00000320: 131b 28c4 f7b2 2a44 22bf 2a44 9275 2844
00000330: e0a4 2a44 76c0 2a44 0767 2844 bfd9 af3d
00000340: 7d82 83bf d821 e0bd 97ae 2a44 2bc1 2a44
00000350: 866b 2844 b5b9 2a44 3dbd 2a44 c656 28c4
00000360: 7fa9 2a44 48d3 2a44 c5e0 26c4 b9a9 2a44
00000370: f5bf 2a44 464f 28c4 ad9b 2a44 53c2 2a44
00000380: 2732 28c4 37ad 2a44 67bf 2a44 7867 2844
00000390: 444f 1b3e d877 f1bf c4b6 593c 2950 713d
000003a0: ffac f9bf f0a2 64be b1b8 2a44 5ebf 2a44
000003b0: 9a7a 2844 e797 2a44 c0c3 2a44 132a 28c4
000003c0: 5e8a 2a44 80e4 2a44 0495 26c4 048e 2a44
000003d0: 1ae0 2a44 8a9b 26c4 8d7d 2a44 cdcc 2a44
000003e0: e386 2844 dfa8 2a44 14cf 2a44 e50d 27c4
000003f0: 51ab 2a44 62c1 2a44 5ef7 27c4 0dab 2a44
682.1309 683.537 -666.3673 -0.027794845 -1.5775412 -0.11694233 680.97375 683.452
674.64777 682.17 683.1053 674.0466 682.717 683.0238 -671.85986 682.79504
683.01404 673.5914 682.1259 683.1217 674.07745 682.46625 683.1083 673.7702
682.6511 682.9861 673.8053 682.4166 683.04663 -672.77783 682.7395 683.0227
673.5662 682.0138 683.1836 674.016 682.7758 683.00165 673.46265 682.30945
683.47534 -666.4714 682.49664 683.02124 -673.0653 682.66 682.9888 -673.2473
682.5135 683.0259 673.65424 682.6363 683.01056 673.5509 682.7628 682.9524
-673.3816 682.52325 683.395 -666.87634 682.2702 683.0793 673.9743 682.2339
683.51263 -666.4482 682.76227 682.96344 -673.44244 682.5132 683.08215 673.71326
681.8527 683.1691 674.22015 0.017485538 -1.3765284 -0.11600572 682.86816 682.9602
-673.4034 -0.013250406 -1.235257 -0.1724721 681.91547 683.15265 674.16205 680.545
683.5945 674.7737 682.5189 683.0159 -673.0715 682.47815 683.0495 -672.42413
682.2326 683.09686 673.97473 682.37396 683.06915 673.88635 682.50635 683.0822
673.61304 682.6246 682.9563 -673.41974 0.16011062 -1.6243792 -0.05632394 682.5368
683.4013 -666.89325 682.4821 682.9966 674.023 682.4085 683.075 -672.4696
681.7171 683.24835 674.0685 680.9233 683.47485 674.6831 680.43195 683.6381
674.8671 682.1605 683.1067 674.0588 -0.09287065 -1.3672676 -0.22351427 682.4999
682.991 -673.39716 682.40826 683.04095 -672.7461 682.7626 682.95917 -673.4737
-0.28282118 -1.8722982 -0.047980655 682.6636 682.9521 -673.4044 682.1273 683.10425
674.0528 682.8827 682.9669 674.02856 682.4614 683.0574 673.749 682.40265
683.02637 674.0821 682.6643 682.989 -673.2286 681.8602 683.67395 -665.8617
682.491 683.0013 -673.3862 681.89325 683.156 674.15906 682.4524 683.02686
-672.61304 0.0793146 -1.4476292 -0.21414216 681.92706 683.15564 674.2001 682.8023
682.9672 -673.4629 682.5989 683.0591 673.50946 682.4075 683.08466 -672.4561
681.82355 683.2601 674.02026 682.665 683.0007 673.7112 682.47424 683.0339
-672.42303 682.7963 682.98645 673.83704 682.5762 683.0072 673.6098 0.08586454
-1.0274197 -0.10943955 682.72797 683.01825 673.68005 682.9017 682.95685 -673.35583
682.6484 683.3013 -667.512 682.6519 682.9993 -673.23865 682.43243 683.0363
-672.7836 682.7065 682.99066 673.6167 0.15166956 -1.8864698 0.013288204 0.058914337
-1.9505919 -0.2232778 682.8858 682.9901 673.91565 682.3735 683.0586 -672.6574
682.162 683.5703 -666.32837 682.219 683.5016 -666.4303 681.96173 683.2
674.1076 682.6386 683.2356 -668.2171 682.6768 683.0216 -671.8651 682.67267

decoder.cls.linear.weight f4 [2, 500]
00000000: e4a3 6e3c 6028 fd3b cf9c afbc fc0a 44bc
00000010: 8d9c 243d 9eac 993c 823d a53c 582a 90bb
00000020: 9d63 2ebd 1cff 133c ed44 0d3d 479a 023d
00000030: 78ee 5e3c 46d3 0cbd 6e2c b03c f287 f0bc
00000040: 33da 0d3d cef5 da3c 1f85 073d 8b23 0cbd
00000050: 58ab 133c f1e4 bbbc 81b4 0e3d 8ecf de3c
00000060: d7c6 333d 90f5 123b fc0b 7abc 059f 143d
00000070: f2be fd3c 808f 963a a23e 9c3c 7ebb 9fbc
00000080: 621d d23c b609 ed3c 6676 ee3c f4c1 c0bc
00000090: 1eb8 863c c49d 0ebc af81 323d a864 44bc
000000a0: 184d e1bc a30c 1cbd 3f3b 233d 8f07 28bd
000000b0: dc50 22bc 94fd 93bc 3225 d1bc 645e 23bc
000000c0: 5cf1 32bc a65a 1ebd 184f a0bc 9e8e a23c
000000d0: bcc0 8e3c abc1 233d 903f 19bc 313e 1bbd
000000e0: 1eb7 c43c 04b6 7abc 741c 54bc 520f ad3c
000000f0: f19d 363d 95ab 1c3d 9483 113c a458 0dbc
00000100: f85a 1d3c 5028 4cbc 7f7d 023d b429 2c3c
00000110: 3e55 e93c 4069 c5ba 88d2 b73b 6680 f43c
00000120: d86f a5bc ab2a 213d c0a8 d5bc e77a 083d
00000130: d4a5 f4bc 70f1 14bd dbed 17bd c041 0abb
00000140: de07 8e3c 2453 043c fde1 05bd 208d 81bc
00000150: c123 f8bc 7880 753c 049d 2b3c ae6d 973c
00000160: 5db8 163d 2ba1 97bc 70c2 ecbc dc6d efbc
00000170: a0b1 bbbc 450a 043d 333c 0c3d 62ac 7dbc
00000180: 50e0 87bb f381 c2bc 7c56 2bbc 9333 24bd
00000190: 9abb a93c a2e0 ac3c 566c 04bd 70e3 17bb
000001a0: 1848 44bc 8a11 c43c 1f7a 013d 7809 c73b
000001b0: d9a9 16bd 66ae 10bd 8ddb 253d 94dc 1ebc
000001c0: 40f1 73bb c1a2 a4bc 2907 cdbc 7264 b63c
000001d0: a0d9 99ba f815 fb3b 86d4 15bd 7713 153d
000001e0: 9a57 ee3c 870a 363d 7f08 0e3d 4eb2 9d3c
000001f0: 90f2 ab3b 5b8a 1abd 86f6 04bd 8068 103a
00000200: da93 d73c 003a 8b3a 0a69 b53c 8096 343b
00000210: 583a fcbb b001 0b3c 00be 89b8 a1db c1bc
00000220: a87d 83bc 3fcb 0f3d 2a84 ff3c 20fd d8bb
00000230: 0406 06bd 61a7 123d f4cc d5bc d099 003b
00000240: a493 6a3c 007e 5bba 301f 52bc 091d 163d
00000250: 3ada d33c f99d 30bd 6109 c8bc 409a a23a
00000260: 92e2 953c fe6c 953c e834 3dbc 3b9d 04bd
00000270: fb51 2c3d 8a5e 07bd 6285 08bd 25a8 333d
00000280: 0411 893c c29e a23c aca1 d9bc 7975 e3bc
00000290: acbf 553c 805c f7bb 031d 103d 2635 76bc
000002a0: 2516 323d ce8c 8a3c f030 a1bc 36e2 11bd
000002b0: 7a3e dd3c 0b24 aebc bcb3 12bd 70e6 cd3b
000002c0: dacb ba3c 70d2 22bc b01a 973b 8001 a1bc
000002d0: 07d2 0c3d 3b9f 273d 0e25 ef3c a21c 31bd
000002e0: 8354 27bd 166b cb3c 37c2 1e3d 3ea1 c33c
000002f0: 201d 923b f802 12bc 767f 09bd 8085 ccbb
00000300: d9f1 2c3d 5028 98bb 80cd 2fbd 401e d43b
00000310: a56e 26bd 0f09 023d d029 2abb f842 b23b
00000320: 9c1d 053c 60ad c7bb dcab 183c 352c 06bd
00000330: f0a6 e53b ec75 8c3c d025 02bd 2a04 2fbd
00000340: c06b 523a 2006 463c b444 4ebc cce3 e6bc
00000350: 1007 3cbb 4ab7 b23c ff7b d5bc 62dc 2abd
00000360: 0df3 303d 45cb 2cbd 78e2 e1bb 2e01 ac3c
00000370: 6a8e e3bc 8888 82bb 00d5 e7ba d071 cb3b
00000380: 40ce 2b3c ed80 afbc b2cc f93c 6094 b83b
00000390: 9fef 343d 20e5 473b e279 b4bc 20e1 c33a
000003a0: bf14 2d3d 9e61 f1bc 208b 7ebb 8f3a d2bc
000003b0: d290 b9bc 1531 0a3d 4937 213d 8e19 d13c
000003c0: 8635 f6bc 8403 bebc 0a1a 1abd eaf9 75bc
000003d0: 1c0b 5b3c a17d 003d fdb2 a1bc 5547 d0bc
000003e0: 2465 743c 4708 153d 9016 763b 6d31 043d
000003f0: f1ae 1b3d e0cc febb 6120 2a3d 2fa6 053d
0.014565442 0.0077257603 -0.021437077 -0.0119655095 0.04018836 0.018759068 0.02017093 -0.004399579
-0.042575467 0.009032991 0.03448956 0.03188541 0.01360666 -0.034381174 0.02150556 -0.029361699
0.03463192 0.026728537 0.03308594 -0.034213584 0.0090130195 -0.022936316 0.03484011 0.02719858
0.0438908 0.0022424199 -0.015261646 0.036284465 0.030974839 0.0011486858 0.019072834 -0.019498583
0.025648776 0.028935295 0.029109191 -0.023529984 0.016445216 -0.008704606 0.043580707 -0.011986889
-0.027502581 -0.03809799 0.039851423 -0.041022833 -0.009906974 -0.018065251 -0.025530431 -0.009971235
-0.010921802 -0.038660668 -0.019568965 0.019843396 0.017425887 0.039979618 -0.009353533 -0.037901107
0.024013098 -0.015302185 -0.012946237 0.02112547 0.04458422 0.03824957 0.008881468 -0.008627091
0.009604208 -0.012460783 0.031857964 0.01050799 0.02848303 -0.0015061274 0.005609814 0.029846381
-0.020194933 0.039347332 -0.026081443 0.033320334 -0.02986423 -0.036363065 -0.03709207 -0.002109632
0.017337736 0.008076463 -0.032686222 -0.015814364 -0.030290486 0.014984243 0.010474447 0.018484917
0.036796916 -0.018509468 -0.028901309 -0.02922719 -0.022911847 0.032236356 0.034237098 -0.015482994
-0.004146613 -0.023743605 -0.010457631 -0.040088248 0.020719338 0.021103207 -0.03232988 -0.0023176335
-0.011980079 0.023934145 0.031610604 0.006074127 -0.036783073 -0.03532257 0.040492583 -0.009696145
-0.0037222654 -0.020097138 -0.025027828 0.022264693 -0.0011737831 0.007662531 -0.03657963 0.036395516
0.029094506 0.044443633 0.03467607 0.019250061 0.0052474216 -0.037729602 -0.032461666 0.0005508736
0.026315618 0.0010622144 0.022144813 0.0027555525 -0.007697385 0.008484289 -6.568059e-05 -0.023664298
-0.016051129 0.03510594 0.03119095 -0.0066219717 -0.03272058 0.035804156 -0.026098706 0.001962293
0.014317427 -0.00083729625 -0.0128248185 0.036648784 0.025860894 -0.043119404 -0.024418535 0.0012405589
0.018296514 0.018240448 -0.011548258 -0.03237651 0.04207037 -0.033049144 -0.03333033 0.043861527
0.016731746 0.019851092 -0.026566349 -0.027765976 0.013046186 -0.0075488687 0.035183918 -0.01502732
0.04347815 0.016912844 -0.019676656 -0.035616122 0.02700733 -0.021257421 -0.03581594 0.006283574
0.022802282 -0.0099378675 0.0046113357 -0.019654036 0.034379985 0.04092334 0.029192474 -0.043240197
-0.04085208 0.024831336 0.038759436 0.023880597 0.0044590384 -0.008911841 -0.03356882 -0.0062415004
0.04222283 -0.0046434775 -0.04292059 0.0064733326 -0.040632863 0.03174692 -0.0025964864 0.005440112
0.008124735 -0.006093666 0.009318318 -0.032757003 0.007008426 0.017146073 -0.031774342 -0.04272858
0.000802692 0.012086421 -0.012589622 -0.028184794 -0.0028690733 0.021815915 -0.026060103 -0.04171408
0.04320054 -0.04218604 -0.0068934523 0.020996656 -0.02777787 -0.003983561 -0.001768738 0.006208636
0.010486186 -0.021423781 0.030493114 0.005632922 0.044173833 0.003050156 -0.022030775 0.0014944412
0.042256113 -0.029465493 -0.003884025 -0.025662689 -0.022652064 0.033738215 0.039359365 0.02552488
-0.030054819 -0.023195036 -0.03762249 -0.015013197 0.013369348 0.03136981 -0.019738669 -0.025424639
0.014916692 0.036384847 0.003755007 0.0322737 0.038008634 -0.007775888 0.041534785 0.03262919
