logs/dr/2020_9_24/39/model.pth (torch_old, 3090 bytes, 2 tensors)

encoder.layers.0.linear.weight f4 [100, 3]
-0.06859589 -0.30760995 -0.008092744 -1.8612004e-10 -2.8424252e-09 4.5681445e-10 -0.054991305 -0.24661493
-0.007501538 4.1046615e-25 -2.596501e-24 -1.3927302e-26 -5.3890548e-05 -0.0001741204 -3.3644335e-06 0.009925725
-0.058934547 -0.00045617385 -2.5629932e-09 -1.1664421e-08 -3.0235095e-10 -3.1323975e-07 -1.3133189e-06 -3.327711e-08
0.016721817 -0.09173975 -0.0013038492 -0.00033972922 -0.007167179 -0.0015322738 -0.010738446 -0.22011821
0.030270984 -0.0032040025 -0.069411844 0.008150538 0.007806978 -0.31878465 0.034265365 -0.033642977
-0.3583964 -0.0690008 -0.0003514517 -0.01224883 -0.0022395607 -0.005873316 -0.29658866 -0.055193838
0.003296923 -0.018149007 -0.00032022997 0.015999626 -0.091192394 -0.0011285937 0.048367657 -0.3356469
-0.04309814 -0.02204929 -0.108848155 -0.004447459 6.5967556e-26 -4.115183e-25 -1.1894147e-26 -0.04626142
-0.21481545 -0.00852735 0.04188011 -0.25606883 -0.016430024 5.02332e-05 -0.00035379265 -4.8003363e-05
1.0266907e-29 -5.727237e-29 -1.5404011e-30 -6.566269e-07 -2.7256117e-06 -5.9116957e-08 0.020994214 -0.12632391
-0.008883582 0.000570295 -0.0032590115 -2.5575662e-05 6.403638e-30 -3.9050827e-29 -7.7393923e-31 -0.05399785
-0.23725794 -0.007211648 -0.0057778475 -0.121620394 -0.025190286 -0.002088168 -0.046899486 -0.0099035455
-0.0002732506 -0.00466857 0.00069727044 -0.0015456714 -0.023723748 0.0034503904 -0.009580738 -0.2643237
0.035543468 0.019253375 -0.10558366 -0.0014709454 -0.007918286 -0.032867778 -0.0007270588 -0.0023035214
-0.010259081 -0.0003911849 -8.672371e-08 -1.843845e-07 2.9002853e-09 6.419707e-23 -4.0602835e-22 -3.6959837e-24
-0.016570292 -0.15137874 0.023540884 -0.050773785 -0.23867585 -0.008843646 -0.008548711 -0.15490392
0.022092128 1.8651777e-25 -1.1796948e-24 -1.0220796e-26 3.785942e-09 -2.2844763e-08 -2.0311033e-09 0.0053126486
-0.030625092 -0.00038335743 -0.00010221569 -0.0023641733 -0.00055860466 0.041655846 -0.24946982 -0.0052257227
0.00091412535 -0.0052173734 -4.1920437e-05 0.023803223 -0.13329719 -0.0017713909 7.947598e-29 -5.008743e-28
-7.2496645e-30 0.04102419 -0.2409513 -0.00570157 -0.015520071 -0.18261719 0.030086312 -9.2596565e-05
-0.00028578265 5.616733e-07 -0.0061056428 -0.30561745 -0.05694279 -0.063409254 -0.33144414 -0.027743103
0.0043070363 -0.025972173 -0.00040981546 2.3219348e-30 -1.4350534e-29 -2.7168197e-31 -5.6165154e-06 -1.6262376e-05
1.4194735e-07 -0.00088488346 -0.0036738012 -8.141704e-05 -3.7812012e-07 -1.4026125e-06 -3.19121e-08 0.007843572
-0.04533978 -0.0006406799 -0.021312732 -0.3486156 0.05095635 -0.0030503382 -0.07031188 -0.01400354
-0.00029500012 -0.038890652 0.0047253883 0.017682403 -0.10407799 -0.0022979956 1.0840388e-28 -6.8566847e-28
-4.860142e-30 0.039790265 -0.4235904 0.025144795 0.009527325 -0.049611192 -0.0008691553 0.00041985972
-0.0024010434 -1.8300818e-05 0.010095076 -0.05995116 -0.0015509817 0.048690952 -0.44406545 -0.06869245
-0.023777222 -0.10853216 -0.00309546 0.00054903014 -0.23088634 -0.041039914 4.7973418e-28 -3.0215838e-27
-2.500058e-28 0.02218369 -0.19591324 0.015255929 -0.013959068 -0.05796483 -0.0012711925 -0.033240005
-0.14410165 -0.0041292324 0.0017416314 -0.24709716 0.02836982 2.985346e-28 -1.8877372e-27 -2.6676032e-29
-0.05197653 -0.22319108 -0.0056420015 -0.0657325 -0.28412366 -0.006284654 -0.003767203 -0.029187815
0.0011529484 -0.018061869 -0.06718686 -0.00067429803 -0.000117375304 -0.00032798533 -5.824908e-06 6.80964e-26
00000000: 017c 8cbd 0d7f 9dbe 6e97 04bc 22a4 4caf
00000010: 7954 43b1 eb22 fb2f 903e 61bd a088 7cbe
00000020: 76cf f5bb f510 fe16 00e5 4898 e8ed 8994
00000030: 8908 62b8 1794 36b9 87c8 61b6 829f 223c
00000040: 5a65 71bd 9e2a efb9 a720 30b1 ab64 48b2
00000050: 1d38 a6af 582b a8b4 4b45 b0b5 92ec 0eb3
00000060: 31fc 883c 0de2 bbbd ebe5 aaba af1d b2b9
00000070: a8da eabb 94d6 c8ba 4ff0 2fbc ab66 61be
00000080: dbfa f73c 3efa 51bb cc27 8ebd d689 053c
00000090: aed1 ff3b be37 a3be d759 0c3d 38cd 09bd
000000a0: bc7f b7be 4b50 8dbd 0c43 b8b9 51af 48bc
000000b0: 98c5 12bb f274 c0bb 78da 97be ef12 62bd
000000c0: 3011 583b 3aad 94bc 8ae4 a7b9 a611 833c
000000d0: 14c3 babd 52ed 93ba 2a1d 463d e9d9 abbe
000000e0: ad87 30bd b6a0 b4bc c8eb debd fdbb 91bb
000000f0: e853 a315 adb7 fe96 7e96 6b94 9d7c 3dbd
00000100: 95f8 5bbe 4cb6 0bbc 7a8a 2b3d 741b 83be
00000110: 4298 86bc 7db1 5238 3f7d b9b9 3857 49b8
00000120: d43c 500f e533 9190 c2f1 f98d 0f43 30b5
00000130: a7e9 36b6 c8e7 7db3 0ffc ab3c 0e5b 01be
00000140: 728c 11bc d97f 153a 2495 55bb 518b d6b7
00000150: 97e1 010f df02 4690 5b28 7b8d d92c 5dbd
00000160: bff3 72be b04f ecbb 1954 bdbb 1d14 f9bd
00000170: dc5b cebc a5d9 08bb ad19 40bd 7b42 22bc
00000180: 1343 8fb9 cefa 98bb 07c9 363a 2098 caba
00000190: 4e58 c2bc f21f 623b 87f8 1cbc 7055 87be
000001a0: 0796 113d 41b9 9d3c 3f3c d8bd bdcc c0ba
000001b0: b3bb 01bc 5da0 06bd 1798 3eba adf6 16bb
000001c0: b415 28bc f317 cdb9 dd3c bab3 3afb 45b4
000001d0: 5c4e 4731 1038 9b1a d86d f59b 40fb 8e98
000001e0: 6cbe 87bc 0703 1bbe d0d8 c03c 2cf8 4fbd
000001f0: 7167 74be f1e4 10bc e50f 0cbc 229f 1ebe
00000200: 8dfa b43c d7e5 6616 878c b697 9871 4a94
00000210: 7f15 8231 2a3c c4b2 8c93 0bb1 ba15 ae3b
00000220: 79e1 fabc 5dfd c8b9 a15c d6b8 3ff0 1abb
00000230: 536f 12ba 529f 2a3d 0475 7fbe 8a3c abbb
00000240: eaa1 6f3a 80f6 aabb bad3 2fb8 fafe c23c
00000250: 0f7f 08be 042e e8ba dc7e c910 c0bb 1e92
00000260: 690a 138f fb08 283d f0bb 76be 3cd4 babb
00000270: e547 7ebc 0000 3bbe 9277 f63c 6730 c2b8
00000280: 19d5 95b9 e5c5 1635 d811 c8bb e479 9cbe
00000290: d83c 69bd b6dc 81bd 0cb3 a9be 8145 e3bc
000002a0: 0a22 8d3b 98c3 d4bc 80dc d6b9 b360 3c0e
000002b0: 1e88 918f e954 b08c 8075 bcb6 306b 88b7
000002c0: 316a 1834 86f7 67ba 28c4 70bb 71be aab8
000002d0: 6f00 cbb4 6641 bcb5 ba0f 09b3 5382 003c
000002e0: 35b6 39bd 4df3 27ba 0a98 aebc be7d b2be
000002f0: 9bb7 503d 2fe8 47bb adff 8fbd 1b6f 65bc
00000300: 3faa 9ab9 ce4b 1fbd 6ed7 9a3b b0da 903c
00000310: d726 d5bd f899 16bb 126b 0911 094c 5992
00000320: 9a26 c58e 1efb 223d d7e0 d8be 75fc cd3c
00000330: 7f18 1c3c 1b35 4bbd 06d8 63ba 9e20 dc39
00000340: d35a 1dbb b584 99b7 d165 253c 598f 75bd
00000350: 4f4a cbba 2a70 473d 8c5c e3be a1ae 8cbd
00000360: 73c8 c2bc 1c46 debd 33dd 4abb caec 0f3a
00000370: 786d 6cbe 7819 28bd a908 1812 0065 6f93
00000380: c375 9e91 92ba b53c 7b9d 48be 01f4 793c
00000390: 93b4 64bc 886c 6dbd 249e a6ba ac26 08bd
000003a0: 628f 13be 834e 87bb 7447 e43a 0a07 7dbe
000003b0: d367 e83c 0238 bd11 dc8f 1593 7843 0790
000003c0: 58e5 54bd 348c 64be 8ae0 b8bb c39e 86bd
000003d0: a878 91be 80ef cdbb 2ee3 76bb 491b efbc
000003e0: 871e 973a 7cf6 93bc 4499 89bd 60c3 30ba
000003f0: 6327 f6b8 72f5 abb9 9473 c3b6 3999 a815

decoder.cls.linear.weight f4 [2, 100]
-0.0058488026 0.013255462 0.090689756 0.043933682 -0.010551728 0.05928109 0.04554861 -0.026856579
0.040453263 0.007926129 -0.037126698 -0.0078431 0.0941206 0.03003832 -0.08256062 0.06372752
0.021486498 0.0491919 0.00042019784 0.039771773 0.02989129 0.08780157 0.052774094 -0.043762315
0.05240483 -0.0059311017 0.06612044 -0.03508856 -0.029350683 0.092474334 0.017619886 0.014020525
0.010254905 0.0065186173 0.0042078346 -0.08689733 0.09652796 0.095469005 -0.06884233 0.024727538
0.08266009 0.019364372 0.043014176 0.07447887 0.04244811 -0.018075466 -0.08312939 -0.047159947
-0.05953592 0.00202284 -0.07080613 0.06349922 0.019697428 -0.043313395 -0.0579468 0.032757588
-0.023937978 0.019105554 0.009395443 0.012438737 -0.013838805 -0.019596241 -0.023448348 0.03856007
-0.06446974 0.0023435205 -0.040634383 -0.09503271 0.028139628 0.030812852 0.08898503 0.06570446
0.09787584 -0.07858162 -0.087044336 0.03110259 0.049008377 0.044055544 -0.06585088 0.07825736
-0.08692173 0.026647307 -0.03828757 -0.03598772 0.0790211 0.08649356 0.038828574 0.044817634
0.0039050132 -0.06131022 0.02607382 0.08600377 0.041901268 -0.089696996 -0.021052562 0.03189919
-0.018442154 -0.031106375 -0.087674074 0.010238722 0.026787765 -0.090888046 0.01909095 0.030091904
0.037314393 0.06514219 -0.05908959 0.03257703 0.009245515 -0.029041484 -0.0060923696 0.098671146
0.0032223016 -0.026994988 0.001466915 -0.048272084 -0.058027174 -0.02254349 0.05179345 -0.0077422857
-0.023416951 0.04153771 0.055476077 -0.018451415 -0.02525089 0.01691278 -0.054372262 0.073691495
-0.027900696 -0.03366039 0.09145375 -0.077414885 -0.026904106 0.09048977 -0.046459008 -0.02091273
0.09589172 -0.03309518 0.046166725 0.042909987 0.0192938 -0.08477155 -0.06476258 -0.079840615
-0.098549165 -0.027888194 0.011734828 -0.087569594 -0.09056266 0.005024895 -0.03718467 0.018453375
0.020740293 0.0994964 -0.0036191791 -0.080934145 -0.06605603 -0.0921306 -0.018333986 0.0114566535
0.033003546 0.019083358 0.022960462 0.013829842 -0.008869328 -0.044861924 0.023582503 0.013165727
-0.028106764 0.072874196 -0.09732318 0.029389389 -0.056451358 0.052927278 0.07820729 0.0708461
0.03834457 -0.047751393 -0.022046104 -0.028053902 0.012098834 -0.048540868 0.048620574 0.058240764
-0.040486097 -0.028807387 -0.070256315 -0.055536833 -0.049221255 0.069649406 -0.08546021 0.029938929
0.089670025 -0.06644384 -0.08816705 0.054190017 0.06124013 0.041845493 0.078800015 0.06321711
00000000: 50a7 bfbb 702d 593c 8dbb b93d cef3 333d
00000010: 28e1 2cbc bad0 723d 2e91 3a3d 5402 dcbc
00000020: 52b2 253d 98dc 013c 2a12 18bd 5880 00bc
00000030: 4dc2 c03d ec12 f63c 8b15 a9bd 9383 823d
00000040: 7404 b03c 727d 493d 004e dc39 bae7 223d
00000050: 94de f43c 4fd1 b33d a629 583d 1d40 33bd
00000060: 72a6 563d b059 c2bb 276a 873d 06b9 0fbd
00000070: d870 f0bc 2f63 bd3d 9457 903c 58b6 653c
00000080: 3004 283c 209a d53b e0e1 893b 3af7 b1bd
00000090: 73b0 c53d 4185 c33d 35fd 8cbd 6891 ca3c
000000a0: b149 a93d 08a2 9e3c a22f 303d 6188 983d
000000b0: 12de 2d3d 0013 94bc be3f aabd ca2a 41bd
000000c0: f0db 73bd a091 043b ce02 91bd e10b 823d
000000d0: 805c a13c 6369 31bd a059 6dbd d22c 063d
000000e0: 9419 c4bc 4083 9c3c 58ef 193c d8cb 4b3c
000000f0: 28bc 62bc 4c88 a0bc c016 c0bc 2af1 1d3d
00000100: b608 84bd c095 193b 3d70 26bd 82a0 c2bd
00000110: 1485 e63c 3c6b fc3c c93d b63d 0f90 863d
00000120: 2173 c83d 66ef a0bd 4d44 b2bd dcca fe3c
00000130: 02bd 483d 9673 343d d4dc 86bd 6545 a03d
00000140: 0504 b2bd 744b da3c 6dd3 1cbd dc67 13bd
00000150: d1d5 a13d 8923 b13d b60a 1f3d b292 373d
00000160: 40eb 7f3b 6d20 7bbd c498 d53c bf22 b03d
00000170: aaa0 2b3d 0fb3 b7bd 6c76 acbc baa8 023d
00000180: 0014 97bc ccd2 febc 778e b3bd 50c0 273c
00000190: 0472 db3c 8323 babd a064 9c3c 4c83 f63c
000001a0: fad6 183d 4569 853d ed07 72bd 7e6f 053d
000001b0: 807a 173c 68e8 edbc 80a2 c7bb 1914 ca3d
000001c0: 402d 533b 9824 ddbc 8045 c03a f3b8 45bd
000001d0: e7ad 6dbd 20ad b8bc 5e25 543d 00b3 fdbb
000001e0: e8d4 bfbc 7223 2a3d e23a 633d 6c27 97bc
000001f0: f4da cebc ac8c 8a3c 73b5 5ebd 91eb 963d
00000200: 0090 e4bc 7adf 09bd 1b4c bb3d b28b 9ebd
00000210: 0066 dcbc b352 b93d cd4b 3ebd 2c51 abbc
00000220: e162 c43d d08e 07bd 5219 3d3d 62c2 2f3d
00000230: 080e 9e3c b59c adbd 3ea2 84bd 7a83 a3bd
00000240: 25d4 c9bd c875 e4bc 7043 403c b057 b3bd
00000250: ea78 b9bd e0a7 a43b f44e 18bd 882b 973c
00000260: 8ce7 a93c c5c4 cb3d c02f 6dbb cdc0 a5bd
00000270: 6248 87bd f8ae bcbd 2831 96bc b0b4 3b3c
00000280: ba2e 073d b454 9c3c 9417 bc3c 9096 623c
00000290: a850 11bc 23c1 37bd 1830 c13c 10b5 573c
000002a0: 2840 e6bc 113f 953d 6051 c7bd 04c2 f03c
000002b0: 8a39 67bd 46ca 583d 252b a03d c317 913d
000002c0: 320f 1d3d f796 43bd 089a b4bc 4cd1 e5bc
000002d0: 303a 463c cad2 46bd 5e26 473d de8d 6e3d
000002e0: c0d4 25bd 78fd ebbc 8be2 8fbd 977a 63bd
000002f0: 3a9c 49bd 59a4 8e3d c305 afbd 7c42 f53c
00000300: eba4 b73d b513 88bd ed90 b4bd 5af6 5d3d
00000310: eed6 7a3d 2e66 2b3d e761 a13d f977 813d
