logs/dr/2020_9_24/37/model.pth (torch_old, 3090 bytes, 2 tensors)

encoder.layers.0.linear.weight f4 [100, 3]
6.4250045 6.921806 0.2667766 -1.2002783 -6.531565 -0.3345312 6.4001727 6.927975
0.48624545 6.376908 6.9255667 0.4084976 6.8108163 6.8727293 0.7035658 -1.0123353
-5.5105305 -0.2828959 6.3464665 6.927195 0.4101508 -1.1428783 -6.2207985 -0.3191683
6.992094 6.8247933 0.72968566 6.54449 6.9077783 -0.11988838 6.9498286 6.818022
0.81193185 6.6232457 6.876358 0.4302801 7.01903 6.7916403 2.561716 6.5162134
6.9017024 -0.70834875 6.726098 6.850353 0.4813388 6.982128 6.811591 -0.15812422
6.9014945 6.8564296 0.7132477 6.936174 6.830086 0.7355019 7.1356716 6.772807
-0.8159366 6.601107 6.8799157 0.4066836 6.5409355 6.900163 0.44453132 6.5220475
6.886271 0.44410655 7.1160192 6.780252 -0.5820332 -1.0531957 -5.730168 -0.2935957
5.9374475 7.049811 -0.27768418 -1.1368822 -6.1879416 -0.31726274 -0.7735928 -4.9731593
-0.083250165 -1.0844836 -5.901354 -0.3029361 6.0249686 7.0405493 -0.25437763 -0.682148
-3.938574 -0.15121704 6.7199545 6.8641305 0.39441594 6.395222 6.931634 0.32080317
6.5046883 6.8996425 0.45020044 6.6818814 6.8559585 0.39910722 6.7786283 6.8553686
0.7114343 7.0193 6.820406 0.69086504 -0.9951348 -5.416336 -0.27797407 -0.95278656
-5.1855764 -0.2664086 6.913645 6.9254065 0.716682 6.4421067 6.9091306 0.4847906
6.261888 6.96367 0.4384432 6.454496 6.915489 0.4850795 -0.87577516 -4.765921
-0.24427323 6.359634 6.929662 0.40885147 -1.1887487 -6.4674387 -0.3316582 6.913352
6.8288035 0.73580414 6.5597625 6.9370103 -0.18970336 7.0946927 6.783198 -0.085196145
-1.0855098 -5.909592 -0.3033534 7.019496 6.809953 0.68958503 6.3601766 6.9618516
0.41285038 -0.74853295 -5.3069963 0.005682429 6.7534842 6.8563867 0.7108658 6.786318
6.883501 0.71375287 6.9876604 6.81014 -0.18289796 -0.51688606 -3.2951963 -0.06053572
6.880246 6.8186665 0.7157348 6.007304 7.0556407 -0.26141173 6.678915 6.963245
0.41268927 -1.0187092 -5.5452433 -0.28465652 6.0050936 7.01631 -0.2533367 -1.0201064
-5.5522 -0.28417164 6.8731375 6.830338 1.1467519 6.492578 6.906516 0.35535714
-0.98643595 -5.37282 -0.2746108 6.9390645 6.8096404 0.73274344 6.3450603 6.9625382
0.41257074 7.12679 6.758279 2.8732266 6.972945 6.86282 0.7390597 -1.0914167
-5.940581 -0.30525687 6.9191637 6.821876 0.7347837 -0.5860121 -4.1426983 -0.11217606
6.5022845 6.8996468 0.4503922 6.9447784 6.8226953 0.080726445 6.596201 6.915027
0.31321445 6.9541855 6.82806 0.8725076 -0.9654041 -5.2554793 -0.26944947 -0.85242784
-4.639982 -0.23797727 -0.72347045 -4.795502 -0.05241921 6.4061923 6.948315 0.48048162
-0.6881464 -4.074736 -0.13503978 6.3969054 6.9282613 0.19480303 6.688192 6.8590074
0.39918685 6.159765 6.978021 0.13913105 6.7513084 6.9362535 0.4043243 6.6212893
00000000: a399 cd40 6f7f dd40 f196 883e b8a2 99bf
00000010: 9502 d1c0 ac47 abbe 37ce cc40 f9b1 dd40
00000020: 2af5 f83e a10f cc40 3e9e dd40 9926 d13e
00000030: 35f2 d940 66ed db40 e31c 343f 3494 81bf
00000040: 4456 b0c0 bbd7 90be 4116 cb40 95ab dd40
00000050: 49ff d13e d649 92bf c810 c7c0 076a a3be
00000060: 3cbf df40 b564 da40 aecc 3a3f 766c d140
00000070: 850c dd40 0a88 f5bd ff64 de40 3c2d da40
00000080: c4da 4f3f a1f1 d340 200b dc40 ac4d dc3e
00000090: e59b e040 1e55 d940 28f3 2340 d284 d040
000000a0: bfda dc40 5856 35bf 323c d740 1736 db40
000000b0: 0a72 f63e 986d df40 8ef8 d940 51eb 21be
000000c0: 0bd9 dc40 df67 db40 6797 363f 23f5 dd40
000000d0: 1190 da40 da49 3c3f 6c57 e440 d6ba d840
000000e0: 39e1 50bf 453c d340 4528 dc40 d538 d03e
000000f0: 584f d140 23ce dc40 9c99 e33e 9db4 d040
00000100: 555c dc40 ef61 e33e 6eb6 e340 d3f7 d840
00000110: 2100 15bf 1ecf 86bf 895d b7c0 2d52 96be
00000120: 92ff bd40 0d98 e140 9f2c 8ebe 5b85 91bf
00000130: 9e03 c6c0 4370 a2be 2e0a 46bf 1f24 9fc0
00000140: 107f aabd 5cd0 8abf e4d7 bcc0 711a 9bbe
00000150: 8bcc c040 2e4c e140 c93d 82be 40a1 2ebf
00000160: 9911 7cc0 a4d8 1abe de09 d740 f5a6 db40
00000170: e3f0 c93e a9a5 cc40 f2cf dd40 5040 a43e
00000180: 6826 d040 dfc9 dc40 ac80 e63e f9d1 d540
00000190: 0364 db40 c857 cc3e 86ea d840 2e5f db40
000001a0: 8f20 363f 1b9e e040 c440 da40 88dc 303f
000001b0: 27c1 7ebf a052 adc0 9e52 8ebe d2e9 73bf
000001c0: 3ef0 a5c0 b566 88be 943c dd40 ee9c dd40
000001d0: 7978 373f bd25 ce40 9917 dd40 7936 f83e
000001e0: 6361 c840 62d6 de40 a17b e03e 3b8b ce40
000001f0: b04b dd40 575c f83e cd32 60bf 6d82 98c0
00000200: c322 7abe 1f82 cb40 cbbf dd40 fb54 d13e
00000210: eb28 98bf 42f5 cec0 1bcf a9be 2e3a dd40
00000220: 8f85 da40 a95d 3c3f 93e9 d140 fdfb dd40
00000230: 9941 42be b907 e340 f50f d940 517b aebd
00000240: fcf1 8abf 611b bdc0 2351 9bbe b69f e040
00000250: 23eb d940 a588 303f 9186 cb40 7dc7 de40
00000260: 2061 d33e db9f 3fbf ead2 a9c0 ab33 ba3b
00000270: 8b1c d840 8567 db40 4dfb 353f 8429 d940
00000280: a445 dc40 82b8 363f ea9a df40 abec d940
00000290: 9a49 3bbe a552 04bf 7fe4 52c0 4ef4 77bd
000002a0: fa2a dc40 8432 da40 653a 373f d63b c040
000002b0: cfc7 e140 c2d7 85be acb9 d540 e7d2 de40
000002c0: 024c d33e 1065 82bf a272 b1c0 80be 91be
000002d0: ba29 c040 9d85 e040 59b5 81be d992 82bf
000002e0: 9fab b1c0 f27e 91be bef0 db40 2192 da40
000002f0: c4c8 923f 33c3 cf40 2e02 dd40 5ff1 b53e
00000300: 1187 7cbf 24ee abc0 c999 8cbe d10c de40
00000310: 93e8 d940 1395 3b3f bc0a cb40 1dcd de40
00000320: 793c d33e aa0e e440 d243 d840 f2e2 3740
00000330: 5e22 df40 399c db40 0433 3d3f 8bb3 8bbf
00000340: 3d19 bec0 a14a 9cbe ca69 dd40 cf4c da40
00000350: c91a 3c3f e404 16bf fc90 84c0 90bc e5bd
00000360: b712 d040 e8c9 dc40 ce99 e63e a03b de40
00000370: 8553 da40 e853 a53d 1414 d340 e747 dd40
00000380: a55d a03e b088 de40 787f da40 a85c 5f3f
00000390: b924 77bf e32c a8c0 48f5 89be b638 5abf
000003a0: bc7a 94c0 50b0 73be 5c35 39bf c174 99c0
000003b0: 87b5 56bd 87ff cc40 9958 de40 b001 f63e
000003c0: 5d2a 30bf 3d64 82c0 de47 0abe 73b3 cc40
000003d0: 51b4 dd40 727a 473e ab05 d640 fd7c db40
000003e0: 3862 cc3e cb1c c540 f34b df40 5f78 0e3e
000003f0: b80a d840 caf5 dd40 9803 cf3e 9ae1 d340

decoder.cls.linear.weight f4 [2, 100]
-0.0058488026 0.013255462 0.090689756 0.043933682 -0.010551728 0.05928109 0.04554861 -0.026856579
0.040453263 0.007926129 -0.037126698 -0.0078431 0.0941206 0.03003832 -0.08256062 0.06372752
0.021486498 0.0491919 0.00042019784 0.039771773 0.02989129 0.08780157 0.052774094 -0.043762315
0.05240483 -0.0059311017 0.06612044 -0.03508856 -0.029350683 0.092474334 0.017619886 0.014020525
0.010254905 0.0065186173 0.0042078346 -0.08689733 0.09652796 0.095469005 -0.06884233 0.024727538
0.08266009 0.019364372 0.043014176 0.07447887 0.04244811 -0.018075466 -0.08312939 -0.047159947
-0.05953592 0.00202284 -0.07080613 0.06349922 0.019697428 -0.043313395 -0.0579468 0.032757588
-0.023937978 0.019105554 0.009395443 0.012438737 -0.013838805 -0.019596241 -0.023448348 0.03856007
-0.06446974 0.0023435205 -0.040634383 -0.09503271 0.028139628 0.030812852 0.08898503 0.06570446
0.09787584 -0.07858162 -0.087044336 0.03110259 0.049008377 0.044055544 -0.06585088 0.07825736
-0.08692173 0.026647307 -0.03828757 -0.03598772 0.0790211 0.08649356 0.038828574 0.044817634
0.0039050132 -0.06131022 0.02607382 0.08600377 0.041901268 -0.089696996 -0.021052562 0.03189919
-0.018442154 -0.031106375 -0.087674074 0.010238722 0.026787765 -0.090888046 0.01909095 0.030091904
0.037314393 0.06514219 -0.05908959 0.03257703 0.009245515 -0.029041484 -0.0060923696 0.098671146
0.0032223016 -0.026994988 0.001466915 -0.048272084 -0.058027174 -0.02254349 0.05179345 -0.0077422857
-0.023416951 0.04153771 0.055476077 -0.018451415 -0.02525089 0.01691278 -0.054372262 0.073691495
-0.027900696 -0.03366039 0.09145375 -0.077414885 -0.026904106 0.09048977 -0.046459008 -0.02091273
0.09589172 -0.03309518 0.046166725 0.042909987 0.0192938 -0.08477155 -0.06476258 -0.079840615
-0.098549165 -0.027888194 0.011734828 -0.087569594 -0.09056266 0.005024895 -0.03718467 0.018453375
0.020740293 0.0994964 -0.0036191791 -0.080934145 -0.06605603 -0.0921306 -0.018333986 0.0114566535
0.033003546 0.019083358 0.022960462 0.013829842 -0.008869328 -0.044861924 0.023582503 0.013165727
-0.028106764 0.072874196 -0.09732318 0.029389389 -0.056451358 0.052927278 0.07820729 0.0708461
0.03834457 -0.047751393 -0.022046104 -0.028053902 0.012098834 -0.048540868 0.048620574 0.058240764
-0.040486097 -0.028807387 -0.070256315 -0.055536833 -0.049221255 0.069649406 -0.08546021 0.029938929
0.089670025 -0.06644384 -0.08816705 0.054190017 0.06124013 0.041845493 0.078800015 0.06321711
00000000: 50a7 bfbb 702d 593c 8dbb b93d cef3 333d
00000010: 28e1 2cbc bad0 723d 2e91 3a3d 5402 dcbc
00000020: 52b2 253d 98dc 013c 2a12 18bd 5880 00bc
00000030: 4dc2 c03d ec12 f63c 8b15 a9bd 9383 823d
00000040: 7404 b03c 727d 493d 004e dc39 bae7 223d
00000050: 94de f43c 4fd1 b33d a629 583d 1d40 33bd
00000060: 72a6 563d b059 c2bb 276a 873d 06b9 0fbd
00000070: d870 f0bc 2f63 bd3d 9457 903c 58b6 653c
00000080: 3004 283c 209a d53b e0e1 893b 3af7 b1bd
00000090: 73b0 c53d 4185 c33d 35fd 8cbd 6891 ca3c
000000a0: b149 a93d 08a2 9e3c a22f 303d 6188 983d
000000b0: 12de 2d3d 0013 94bc be3f aabd ca2a 41bd
000000c0: f0db 73bd a091 043b ce02 91bd e10b 823d
000000d0: 805c a13c 6369 31bd a059 6dbd d22c 063d
000000e0: 9419 c4bc 4083 9c3c 58ef 193c d8cb 4b3c
000000f0: 28bc 62bc 4c88 a0bc c016 c0bc 2af1 1d3d
00000100: b608 84bd c095 193b 3d70 26bd 82a0 c2bd
00000110: 1485 e63c 3c6b fc3c c93d b63d 0f90 863d
00000120: 2173 c83d 66ef a0bd 4d44 b2bd dcca fe3c
00000130: 02bd 483d 9673 343d d4dc 86bd 6545 a03d
00000140: 0504 b2bd 744b da3c 6dd3 1cbd dc67 13bd
00000150: d1d5 a13d 8923 b13d b60a 1f3d b292 373d
00000160: 40eb 7f3b 6d20 7bbd c498 d53c bf22 b03d
00000170: aaa0 2b3d 0fb3 b7bd 6c76 acbc baa8 023d
00000180: 0014 97bc ccd2 febc 778e b3bd 50c0 273c
00000190: 0472 db3c 8323 babd a064 9c3c 4c83 f63c
000001a0: fad6 183d 4569 853d ed07 72bd 7e6f 053d
000001b0: 807a 173c 68e8 edbc 80a2 c7bb 1914 ca3d
000001c0: 402d 533b 9824 ddbc 8045 c03a f3b8 45bd
000001d0: e7ad 6dbd 20ad b8bc 5e25 543d 00b3 fdbb
000001e0: e8d4 bfbc 7223 2a3d e23a 633d 6c27 97bc
000001f0: f4da cebc ac8c 8a3c 73b5 5ebd 91eb 963d
00000200: 0090 e4bc 7adf 09bd 1b4c bb3d b28b 9ebd
00000210: 0066 dcbc b352 b93d cd4b 3ebd 2c51 abbc
00000220: e162 c43d d08e 07bd 5219 3d3d 62c2 2f3d
00000230: 080e 9e3c b59c adbd 3ea2 84bd 7a83 a3bd
00000240: 25d4 c9bd c875 e4bc 7043 403c b057 b3bd
00000250: ea78 b9bd e0a7 a43b f44e 18bd 882b 973c
00000260: 8ce7 a93c c5c4 cb3d c02f 6dbb cdc0 a5bd
00000270: 6248 87bd f8ae bcbd 2831 96bc b0b4 3b3c
00000280: ba2e 073d b454 9c3c 9417 bc3c 9096 623c
00000290: a850 11bc 23c1 37bd 1830 c13c 10b5 573c
000002a0: 2840 e6bc 113f 953d 6051 c7bd 04c2 f03c
000002b0: 8a39 67bd 46ca 583d 252b a03d c317 913d
000002c0: 320f 1d3d f796 43bd 089a b4bc 4cd1 e5bc
000002d0: 303a 463c cad2 46bd 5e26 473d de8d 6e3d
000002e0: c0d4 25bd 78fd ebbc 8be2 8fbd 977a 63bd
000002f0: 3a9c 49bd 59a4 8e3d c305 afbd 7c42 f53c
00000300: eba4 b73d b513 88bd ed90 b4bd 5af6 5d3d
00000310: eed6 7a3d 2e66 2b3d e761 a13d f977 813d
