logs/dr/2020_9_24/20/model.pth (torch_old, 2298 bytes, 4 tensors)

encoder.layers.0.linear.bias f4 [16]
0	0xbe4af978	-0.19821727
1	0xbea0386c	-0.31293046
2	0xbe961785	-0.2931482
3	0xbe9396ae	-0.28825897
4	0xbeb6daa0	-0.35713673
5	0xbeaae26f	-0.3337588
6	0xbe8cbb5d	-0.27486697
7	0xbe7163a0	-0.2357316
8	0xbebb745b	-0.3661221
9	0xbe95ba71	-0.29243806
10	0xbe874008	-0.2641604
11	0xbe4ce5b9	-0.20009507
12	0xbe9ba5f4	-0.3040005
13	0xbe88def8	-0.26732612
14	0xbe49bfff	-0.19702147
15	0xbec76a0b	-0.38948092

encoder.layers.0.linear.weight f4 [16, 3]
0	0xbef5636f	-0.47927424
1	0xbea7a32c	-0.32741678
2	0xbec23e21	-0.37938026
3	0xbed1d6e0	-0.4098425
4	0xbedd1f6d	-0.43188038
5	0xbd69a174	-0.05703874
6	0xbebeffaf	-0.37304446
7	0xbe23d28c	-0.15998286
8	0xbda24dbc	-0.07924983
9	0x3d8dac10	0.06917584
10	0x3e73d3e6	0.23811302
11	0x3e4a5b25	0.19761331
12	0x3ddd1d89	0.10796649
13	0x3e99f8e2	0.30072695
14	0xbc9ba5c2	-0.018999938
15	0x3e43721c	0.19086498
16	0x3b569362	0.0032741656
17	0x3e8926f7	0.2678754
18	0xbdcf5a7b	-0.1012468
19	0x3d93e262	0.072209135
20	0x3cd64567	0.02615614
21	0xbe084543	-0.13307671
22	0xbe13c44d	-0.14430352
23	0xbd7b8db4	-0.061414436
24	0x3ecfc32b	0.4057859
25	0x3f118544	0.5684397
26	0x3e860e34	0.2618271
27	0xbe8f52e3	-0.27992925
28	0xbd4576ef	-0.048209127
29	0xbe9b6f01	-0.30358127
30	0x3cba2873	0.022724366
31	0xb84b3a94	-4.8453527e-05
32	0x3e0d9e36	0.13829884
33	0xbd181eec	-0.037138864
34	0x3c9bcc94	0.019018449
35	0x3c952204	0.018204696
36	0x3e81912a	0.25306064
37	0x3e441baa	0.19151178
38	0x3ebf59f5	0.3737332
39	0xbf424ced	-0.7589863
40	0xbef194da	-0.47183877
41	0xbf2251db	-0.6340615
42	0xbe009c8a	-0.12559715
43	0xbdead2b1	-0.114659674
44	0xbe03e6a5	-0.12880953
45	0xbd237da6	-0.03991475
46	0x3e0a8c87	0.1353017
47	0xbea304fd	-0.31839743

decoder.cls.linear.weight f4 [2, 16]
0	0x3e448a26	0.19193324
1	0x3e1dd718	0.15414083
2	0x3e016f82	0.12640193
3	0x3e4c3396	0.19941553
4	0x3dbc45cc	0.09193
5	0x3e081cd6	0.1329225
6	0x3e546ff4	0.20745832
7	0xbd4e5178	-0.050370663
8	0xbe47a7e4	-0.19497639
9	0xbdfbcc34	-0.12294808
10	0xbd08b1c8	-0.03337267
11	0xbce10c40	-0.027471662
12	0xbade1600	-0.0016943812
13	0x3e12b4d6	0.14326796
14	0x3da43eb8	0.08019775
15	0xbe3d48c8	-0.18484795
16	0xbd99cebc	-0.075101346
17	0xbd70e548	-0.05881241
18	0x3e1bce1a	0.1521534
19	0xbdb9be30	-0.090694785
20	0xbdd63680	-0.10459614
21	0xbd24a3a0	-0.040195107
22	0xbd823cec	-0.06359276
23	0xbd7c2018	-0.061554044
24	0xbe7a7b1e	-0.24461028
25	0x3e6417be	0.22274682
26	0x3e083fca	0.13305584
27	0xbdf24584	-0.11829665
28	0xbe1fba0e	-0.15598318
29	0x3c0e7f80	0.008697391
30	0x3e11dcb2	0.14244345
31	0xbe37b758	-0.17941034

decoder.cls.linear.bias f4 [2]
0	0xbdc15f4c	-0.094420046
1	0x3dd62840	0.10456896
