logs/dr/2020_9_24/41/model.pth (torch_old, 3090 bytes, 2 tensors)

encoder.layers.0.linear.weight f4 [100, 3]
000000 6a 67 a2 bd 27 e0 8e be 9b 8e 04 bc 80 ca 43 9b
       -0.07929881 -0.2790539 -0.00809064 -1.6195453e-22
000010 38 5f 0e 9d b5 8e f3 1b 44 53 83 bd a9 8e 67 be
       -1.884277e-21 4.02932e-22 -0.06412366 -0.22613014
000020 e7 0c d8 bb af 5d 9d 16 bd de c4 97 55 0d 9d 14
       -0.006593335 2.542384e-25 -1.272243e-24 1.5858207e-26
000030 66 f4 99 b9 e9 de 34 ba e6 b5 6b 37 85 cf 83 3b
       -0.00029364525 -0.0006899671 1.4049443e-05 0.004022541
000040 f2 53 a0 bc 9c a4 40 39 1b da b7 1b 19 ec e5 9c
       -0.019571278 0.00018371869 3.0415758e-22 -1.5214979e-21
000050 44 85 b8 19 0e 44 cb a9 92 61 a3 aa 45 c3 36 a8
       1.907898e-23 -9.0268166e-14 -2.902232e-13 -1.0145372e-14
000060 04 50 a3 3c b8 5f b4 bd 8c f1 aa b9 f2 ba e6 b8
       0.019935615 -0.088073194 -0.00032604893 -0.00011002076
000070 97 d7 17 bb 22 e4 21 ba 9c 19 4c bc 0b 99 32 be
       -0.0023169273 -0.0006175657 -0.012457278 -0.17441194
000080 5f 34 0d 3d 70 a0 7c bb 8b 7c 82 bd 90 9e 41 3c
       0.034473773 -0.0038547777 -0.06371411 0.011817589
000090 99 e4 a5 3c 82 c3 9d be 2a 6d 1e 3d 2d 8c 13 bd
       0.020250605 -0.30813223 0.038678326 -0.036022354
0000a0 77 99 ad be 6f 82 a8 bd 11 46 17 ba bd 6b f5 bb
       -0.33906147 -0.08228003 -0.00057706336 -0.00748965
0000b0 7a 84 ee ba 37 25 6e bb c6 d5 8e be af 4c 8b bd
       -0.001819744 -0.00363381 -0.2789747 -0.068017356
0000c0 1c a5 5a 3b cf 27 72 bc b2 ad 3c b9 55 14 a0 3c
       0.0033362573 -0.014779999 -0.00017993784 0.019540945
0000d0 b5 90 ba bd 8a f0 26 ba 8a c2 6c 3d 01 67 a6 be
       -0.09109632 -0.00063682406 0.057802714 -0.3250046
0000e0 1e 28 4d bd 9f ab ac bc 92 fd 97 bd 8b a6 12 bb
       -0.050087087 -0.021077929 -0.074214116 -0.00223771
0000f0 09 8e 91 b2 7b 26 74 b3 6f 8f dd 2f 0e 7c 31 bd
       -1.6944812e-08 -5.6845675e-08 4.0301582e-10 -0.0433312
000100 a0 7a 19 be 6e 73 99 bb f5 35 2d 3d 5b 13 61 be
       -0.14988184 -0.0046829497 0.042287786 -0.2198004
000110 02 d9 d1 bc ba 32 48 b3 f2 1a 1e b5 c3 72 24 b4
       -0.025616173 -4.6612264e-08 -5.88988e-07 -1.531544e-07
000120 8c aa 8e 0f 2a 4b b2 90 ac 10 88 0d 7e 98 a1 a9
       1.4067973e-29 -7.032443e-29 8.385661e-31 -7.1762895e-14
000130 9f 10 7d aa 66 42 05 a8 ca 69 eb 3b ec f5 1c bd
       -2.247668e-13 -7.397381e-15 0.007184242 -0.038320467
000140 0b bb b7 bb 00 fe e1 36 5d 44 07 b8 6e 65 5a 34
       -0.005607014 6.735092e-06 -3.2250176e-05 2.0339732e-07
000150 53 93 02 0f 4a c1 22 90 f5 5d 2d 8d d4 92 07 bd
       6.4378685e-30 -3.209777e-29 -5.3422838e-31 -0.03309901
000160 8c 55 e1 bd 9f 9b 51 bb 04 ee ba bb cc f9 ec bd
       -0.11002645 -0.0031983627 -0.005704643 -0.115710825
000170 87 56 f9 bc e5 42 0d bb 8c 10 1f bd b3 eb 29 bc
       -0.030436767 -0.0021554765 -0.03883414 -0.0103711365
000180 ae 9c 4c b9 ec c1 29 bb e4 97 07 3a 89 4b eb ba
       -0.00019513324 -0.002590294 0.0005172475 -0.0017951588
000190 98 e4 96 bc e2 81 6d 3b ff 91 72 bc aa ec 5f be
       -0.018419549 0.0036240746 -0.014805316 -0.21867624
0001a0 14 a8 2f 3d 8d 70 c1 3c d6 2d d5 bd 30 86 43 ba
       0.0428849 0.023613239 -0.10409133 -0.0007458655
0001b0 f4 19 80 b9 b3 8c 4a ba d5 68 cc b7 71 8c 4c b9
       -0.000244334 -0.00077266543 -2.4367511e-05 -0.00019507275
0001c0 9c 90 29 ba c9 a9 b5 b7 79 bd 47 b5 56 6d 94 b5
       -0.0006468387 -2.1655944e-05 -7.4408996e-07 -1.105868e-06
0001d0 71 04 cd 33 24 73 4c 1a db cb 7f 9b 75 6b 4a 18
       9.546864e-08 4.227922e-23 -2.1158975e-22 2.616214e-24
0001e0 bb b3 a0 bc 16 0c 14 be 2c dc fb 3c 39 15 5f bd
       -0.019616952 -0.14457735 0.030744635 -0.0544636
0001f0 dc cc 43 be fb 40 b2 bb a4 91 32 bb 2f 76 12 bd
       -0.19121116 -0.005439875 -0.0027247453 -0.03575724
000200 14 46 ee 3b d8 e8 1b 16 36 09 43 97 bd ee 18 14
       0.0072715376 1.2594273e-25 -6.3019524e-25 7.721122e-27
000210 bc 38 b6 22 ec f9 f2 a3 e8 be 90 a2 b4 a4 b8 3b
       4.939127e-18 -2.6343539e-17 -3.923341e-18 0.0056348685
000220 79 0a db bc 86 8f 8e 38 e1 38 0e b8 2b 70 1c b9
       -0.026738392 6.797821e-05 -3.390841e-05 -0.00014919105
000230 87 c2 f7 b7 5c f8 38 3d 74 5d 62 be ec 8c 0a 3b
       -2.9535278e-05 0.04515873 -0.22105962 0.0021141125
000240 0a c8 2d 37 88 bf 4f b8 ab 2e a7 34 de dc ed 3c
       1.0358179e-05 -4.9531023e-05 3.114013e-07 0.029035982
000250 2f 98 07 be 08 60 da b9 66 cf f0 0f bc bb 14 91
       -0.13241647 -0.0004165175 2.3745714e-29 -1.1732992e-28
000260 b4 f3 29 8e c6 6a fa 3c 1c 7d 17 be 13 8d a5 3a
       -2.0948197e-30 0.030568492 -0.14793819 0.0012630544
000270 06 7d b4 bc b1 96 33 be 2c 93 1b 3d 2f 27 09 ba
       -0.022032272 -0.17537953 0.03798215 -0.0005231974
000280 31 34 97 ba 34 36 6f 38 52 76 77 bb 79 21 93 be
       -0.001153594 5.703252e-05 -0.0037759733 -0.28736475
000290 b4 93 8f bd 0d f4 64 bd 90 2d 44 be 5f 6e 38 bc
       -0.07010594 -0.055896807 -0.19158006 -0.011256783
0002a0 8d e1 9a 3b ac e9 be bc c3 32 62 39 fb 07 32 0e
       0.004726595 -0.023304783 0.0002157195 2.1944036e-30
0002b0 64 de 6a 8f d4 22 ba 8d 43 cc 7f ba e7 e3 fc ba
       -1.15799216e-29 -1.147152e-30 -0.00097579154 -0.0019293994
0002c0 fb 44 08 39 c9 06 99 b6 26 22 74 b7 e1 e9 f8 b4
       0.00012995668 -4.560545e-06 -1.4551484e-05 -4.636377e-07
0002d0 b2 08 04 11 62 f3 24 92 c6 9d f9 0e d2 4f e6 3a
       1.0415643e-28 -5.204927e-28 6.153517e-30 0.0017571396
0002e0 dc b4 0a bc 8f 33 76 38 90 59 b7 bc d9 8b a3 be
       -0.008465972 5.8698988e-05 -0.022381574 -0.31942633
0002f0 91 89 81 3d 05 61 42 bb 15 18 84 bd 4b a6 86 bc
       0.06325067 -0.002965988 -0.06449906 -0.016436717
000300 f1 a8 2e ba b5 8c 16 bc f3 c5 f3 3a e6 f5 ae 3c
       -0.00066627475 -0.009188821 0.0018598422 0.021357488
000310 ae 2e d5 bd db 1a 69 3a de 82 4a 10 2d e0 7a 91
       -0.10409294 0.00088922464 3.9938292e-29 -1.9790602e-28
000320 8f 7c d1 8d 7a 37 89 3d 68 71 ca be 21 86 ce 3c
       -1.2910606e-30 0.067000344 -0.39539647 0.025210442
000330 30 14 34 3c e1 06 35 bd c8 96 46 ba f6 e3 e5 36
       0.010991141 -0.044196013 -0.0007575569 6.85127e-06
000340 69 cf 09 b8 32 10 68 34 59 c3 d3 3b 18 0f 01 bd
       -3.285651e-05 2.1612576e-07 0.0064624962 -0.031508535
000350 b6 c0 97 39 9a 9d 54 3d b8 ec 96 be 17 e7 45 bd
       0.00028944545 0.051908113 -0.29477477 -0.048316088
000360 a6 ac e2 bc e3 55 ca bd f7 93 3a bb 73 33 40 bb
       -0.027670216 -0.09879663 -0.0028469542 -0.002932754
000370 ea d8 49 be 12 f8 45 bd b3 1f e6 b7 ee 48 ba b8
       -0.19711652 -0.04833228 -2.7432898e-05 -8.882755e-05
000380 ad 26 29 37 39 36 02 3d 18 ce 41 be 5b 4a 96 3c
       1.008219e-05 0.031789992 -0.18926275 0.018346002
000390 d8 8f 7c ba 5d ad 49 bb 58 2d cc b8 a9 d8 10 bc
       -0.00096344715 -0.0030773499 -9.735924e-05 -0.008840718
0003a0 c9 10 eb bc 55 6a 75 ba ba dc 47 3c 4c 71 d4 bd
       -0.028694527 -0.0009361853 0.012198621 -0.10373172
0003b0 e5 ad 20 3c ae 75 c3 10 a6 4f 05 92 cb 23 8f 90
       0.009807085 7.709525e-29 -4.2065574e-28 -5.64587e-29
0003c0 c3 8f cc bc f1 05 a6 bd 3d 1b 2d bb 9d ac 9e bd
       -0.024970895 -0.08106602 -0.002641394 -0.07747767
0003d0 00 b8 88 be 13 8c df bb a1 ea a5 bb 00 71 95 bc
       -0.2670288 -0.006822118 -0.0050633703 -0.01824236
0003e0 33 3e 07 ba 8f 44 77 bc 89 56 3d bd 58 d7 2f 39
       -0.000515911 -0.015092029 -0.046225104 0.00016769522
0003f0 8f b3 91 ba 0f 96 0b bb f3 4a a1 38 2f 39 fa b8
       -0.0011116135 -0.0021299159 7.6910386e-05 -0.0001193158

decoder.cls.linear.weight f4 [2, 100]
000000 50 a7 bf bb 70 2d 59 3c 8d bb b9 3d ce f3 33 3d
       -0.0058488026 0.013255462 0.090689756 0.043933682
000010 28 e1 2c bc ba d0 72 3d 2e 91 3a 3d 54 02 dc bc
       -0.010551728 0.05928109 0.04554861 -0.026856579
000020 52 b2 25 3d 98 dc 01 3c 2a 12 18 bd 58 80 00 bc
       0.040453263 0.007926129 -0.037126698 -0.0078431
000030 4d c2 c0 3d ec 12 f6 3c 8b 15 a9 bd 93 83 82 3d
       0.0941206 0.03003832 -0.08256062 0.06372752
000040 74 04 b0 3c 72 7d 49 3d 00 4e dc 39 ba e7 22 3d
       0.021486498 0.0491919 0.00042019784 0.039771773
000050 94 de f4 3c 4f d1 b3 3d a6 29 58 3d 1d 40 33 bd
       0.02989129 0.08780157 0.052774094 -0.043762315
000060 72 a6 56 3d b0 59 c2 bb 27 6a 87 3d 06 b9 0f bd
       0.05240483 -0.0059311017 0.06612044 -0.03508856
000070 d8 70 f0 bc 2f 63 bd 3d 94 57 90 3c 58 b6 65 3c
       -0.029350683 0.092474334 0.017619886 0.014020525
000080 30 04 28 3c 20 9a d5 3b e0 e1 89 3b 3a f7 b1 bd
       0.010254905 0.0065186173 0.0042078346 -0.08689733
000090 73 b0 c5 3d 41 85 c3 3d 35 fd 8c bd 68 91 ca 3c
       0.09652796 0.095469005 -0.06884233 0.024727538
0000a0 b1 49 a9 3d 08 a2 9e 3c a2 2f 30 3d 61 88 98 3d
       0.08266009 0.019364372 0.043014176 0.07447887
0000b0 12 de 2d 3d 00 13 94 bc be 3f aa bd ca 2a 41 bd
       0.04244811 -0.018075466 -0.08312939 -0.047159947
0000c0 f0 db 73 bd a0 91 04 3b ce 02 91 bd e1 0b 82 3d
       -0.05953592 0.00202284 -0.07080613 0.06349922
0000d0 80 5c a1 3c 63 69 31 bd a0 59 6d bd d2 2c 06 3d
       0.019697428 -0.043313395 -0.0579468 0.032757588
0000e0 94 19 c4 bc 40 83 9c 3c 58 ef 19 3c d8 cb 4b 3c
       -0.023937978 0.019105554 0.009395443 0.012438737
0000f0 28 bc 62 bc 4c 88 a0 bc c0 16 c0 bc 2a f1 1d 3d
       -0.013838805 -0.019596241 -0.023448348 0.03856007
000100 b6 08 84 bd c0 95 19 3b 3d 70 26 bd 82 a0 c2 bd
       -0.06446974 0.0023435205 -0.040634383 -0.09503271
000110 14 85 e6 3c 3c 6b fc 3c c9 3d b6 3d 0f 90 86 3d
       0.028139628 0.030812852 0.08898503 0.06570446
000120 21 73 c8 3d 66 ef a0 bd 4d 44 b2 bd dc ca fe 3c
       0.09787584 -0.07858162 -0.087044336 0.03110259
000130 02 bd 48 3d 96 73 34 3d d4 dc 86 bd 65 45 a0 3d
       0.049008377 0.044055544 -0.06585088 0.07825736
000140 05 04 b2 bd 74 4b da 3c 6d d3 1c bd dc 67 13 bd
       -0.08692173 0.026647307 -0.03828757 -0.03598772
000150 d1 d5 a1 3d 89 23 b1 3d b6 0a 1f 3d b2 92 37 3d
       0.0790211 0.08649356 0.038828574 0.044817634
000160 40 eb 7f 3b 6d 20 7b bd c4 98 d5 3c bf 22 b0 3d
       0.0039050132 -0.06131022 0.02607382 0.08600377
000170 aa a0 2b 3d 0f b3 b7 bd 6c 76 ac bc ba a8 02 3d
       0.041901268 -0.089696996 -0.021052562 0.03189919
000180 00 14 97 bc cc d2 fe bc 77 8e b3 bd 50 c0 27 3c
       -0.018442154 -0.031106375 -0.087674074 0.010238722
000190 04 72 db 3c 83 23 ba bd a0 64 9c 3c 4c 83 f6 3c
       0.026787765 -0.090888046 0.01909095 0.030091904
0001a0 fa d6 18 3d 45 69 85 3d ed 07 72 bd 7e 6f 05 3d
       0.037314393 0.06514219 -0.05908959 0.03257703
0001b0 80 7a 17 3c 68 e8 ed bc 80 a2 c7 bb 19 14 ca 3d
       0.009245515 -0.029041484 -0.0060923696 0.098671146
0001c0 40 2d 53 3b 98 24 dd bc 80 45 c0 3a f3 b8 45 bd
       0.0032223016 -0.026994988 0.001466915 -0.048272084
0001d0 e7 ad 6d bd 20 ad b8 bc 5e 25 54 3d 00 b3 fd bb
       -0.058027174 -0.02254349 0.05179345 -0.0077422857
0001e0 e8 d4 bf bc 72 23 2a 3d e2 3a 63 3d 6c 27 97 bc
       -0.023416951 0.04153771 0.055476077 -0.018451415
0001f0 f4 da ce bc ac 8c 8a 3c 73 b5 5e bd 91 eb 96 3d
       -0.02525089 0.01691278 -0.054372262 0.073691495
000200 00 90 e4 bc 7a df 09 bd 1b 4c bb 3d b2 8b 9e bd
       -0.027900696 -0.03366039 0.09145375 -0.077414885
000210 00 66 dc bc b3 52 b9 3d cd 4b 3e bd 2c 51 ab bc
       -0.026904106 0.09048977 -0.046459008 -0.02091273
000220 e1 62 c4 3d d0 8e 07 bd 52 19 3d 3d 62 c2 2f 3d
       0.09589172 -0.03309518 0.046166725 0.042909987
000230 08 0e 9e 3c b5 9c ad bd 3e a2 84 bd 7a 83 a3 bd
       0.0192938 -0.08477155 -0.06476258 -0.079840615
000240 25 d4 c9 bd c8 75 e4 bc 70 43 40 3c b0 57 b3 bd
       -0.098549165 -0.027888194 0.011734828 -0.087569594
000250 ea 78 b9 bd e0 a7 a4 3b f4 4e 18 bd 88 2b 97 3c
       -0.09056266 0.005024895 -0.03718467 0.018453375
000260 8c e7 a9 3c c5 c4 cb 3d c0 2f 6d bb cd c0 a5 bd
       0.020740293 0.0994964 -0.0036191791 -0.080934145
000270 62 48 87 bd f8 ae bc bd 28 31 96 bc b0 b4 3b 3c
       -0.06605603 -0.0921306 -0.018333986 0.0114566535
000280 ba 2e 07 3d b4 54 9c 3c 94 17 bc 3c 90 96 62 3c
       0.033003546 0.019083358 0.022960462 0.013829842
000290 a8 50 11 bc 23 c1 37 bd 18 30 c1 3c 10 b5 57 3c
       -0.008869328 -0.044861924 0.023582503 0.013165727
0002a0 28 40 e6 bc 11 3f 95 3d 60 51 c7 bd 04 c2 f0 3c
       -0.028106764 0.072874196 -0.09732318 0.029389389
0002b0 8a 39 67 bd 46 ca 58 3d 25 2b a0 3d c3 17 91 3d
       -0.056451358 0.052927278 0.07820729 0.0708461
0002c0 32 0f 1d 3d f7 96 43 bd 08 9a b4 bc 4c d1 e5 bc
       0.03834457 -0.047751393 -0.022046104 -0.028053902
0002d0 30 3a 46 3c ca d2 46 bd 5e 26 47 3d de 8d 6e 3d
       0.012098834 -0.048540868 0.048620574 0.058240764
0002e0 c0 d4 25 bd 78 fd eb bc 8b e2 8f bd 97 7a 63 bd
       -0.040486097 -0.028807387 -0.070256315 -0.055536833
0002f0 3a 9c 49 bd 59 a4 8e 3d c3 05 af bd 7c 42 f5 3c
       -0.049221255 0.069649406 -0.08546021 0.029938929
000300 eb a4 b7 3d b5 13 88 bd ed 90 b4 bd 5a f6 5d 3d
       0.089670025 -0.06644384 -0.08816705 0.054190017
000310 ee d6 7a 3d 2e 66 2b 3d e7 61 a1 3d f9 77 81 3d
       0.06124013 0.041845493 0.078800015 0.06321711
