logs/dr/2020_9_24/17/model.pth (torch_old, 2155 bytes, 3 tensors)

encoder.layers.0.linear.bias f4 [16]
0	0x00000000	0.0
1	0x00000000	0.0
2	0x00000000	0.0
3	0x00000000	0.0
4	0x00000000	0.0
5	0x00000000	0.0
6	0x00000000	0.0
7	0x00000000	0.0
8	0x00000000	0.0
9	0x00000000	0.0
10	0x00000000	0.0
11	0x00000000	0.0
12	0x00000000	0.0
13	0x00000000	0.0
14	0x00000000	0.0
15	0x00000000	0.0

encoder.layers.0.linear.weight f4 [16, 3]
0	0xbf06ca19	-0.52652127
1	0xbf08a9aa	-0.53383887
2	0xbf03ca54	-0.51480603
3	0xbf5eaed2	-0.86985505
4	0xbf5113b6	-0.816707
5	0xbf3901db	-0.72268456
6	0xbeaa737b	-0.3329123
7	0xbeaff7ed	-0.3436884
8	0xbea12853	-0.31476077
9	0xbd855c46	-0.065117404
10	0xbd89ff79	-0.06738181
11	0xbd9679ae	-0.07347427
12	0xbd29507b	-0.041336518
13	0xbd5e966b	-0.05434267
14	0xbd6f29dd	-0.058389533
15	0xbed4fa5e	-0.41597265
16	0xbed1b9cb	-0.4096206
17	0xbed897a0	-0.4230318
18	0xbdb4cf38	-0.08828586
19	0xbdb53535	-0.08848039
20	0xbd9eae00	-0.077480316
21	0xbf36c079	-0.7138744
22	0xbf29d3a9	-0.6633859
23	0xbf19494d	-0.59877473
24	0xbd7b3eba	-0.061339118
25	0xbda7c0fd	-0.081911065
26	0xbdb61134	-0.0889
27	0xbda7f940	-0.082018375
28	0xbda1eb7f	-0.079062454
29	0xbdb0e641	-0.086376674
30	0xbe99b320	-0.30019474
31	0xbe818c96	-0.2530257
32	0xbe86551b	-0.26236805
33	0xbe33541a	-0.17512551
34	0xbe292f5b	-0.16521971
35	0xbe1b9a95	-0.15195687
36	0xbe108d7a	-0.14116469
37	0xbe045182	-0.12921718
38	0xbe019f0b	-0.12658326
39	0xbf1018f7	-0.56288093
40	0xbf16f7ec	-0.5897205
41	0xbf1425b5	-0.57870036
42	0xbdb0204b	-0.085999094
43	0xbdd0cd07	-0.10195356
44	0xbddfdd99	-0.10930938
45	0xbe9a7d15	-0.30173555
46	0xbea46f44	-0.3211614
47	0xbeb20f89	-0.34777477

decoder.cls.linear.weight f4 [2, 16]
0	0x3e448a26	0.19193324
1	0x3e1dd718	0.15414083
2	0x3e016f82	0.12640193
3	0x3e4c3396	0.19941553
4	0x3dbc45cc	0.09193
5	0x3e081cd6	0.1329225
6	0x3e546ff4	0.20745832
7	0xbd4e5178	-0.050370663
8	0xbe47a7e4	-0.19497639
9	0xbdfbcc34	-0.12294808
10	0xbd08b1c8	-0.03337267
11	0xbce10c40	-0.027471662
12	0xbade1600	-0.0016943812
13	0x3e12b4d6	0.14326796
14	0x3da43eb8	0.08019775
15	0xbe3d48c8	-0.18484795
16	0xbd99cebc	-0.075101346
17	0xbd70e548	-0.05881241
18	0x3e1bce1a	0.1521534
19	0xbdb9be30	-0.090694785
20	0xbdd63680	-0.10459614
21	0xbd24a3a0	-0.040195107
22	0xbd823cec	-0.06359276
23	0xbd7c2018	-0.061554044
24	0xbe7a7b1e	-0.24461028
25	0x3e6417be	0.22274682
26	0x3e083fca	0.13305584
27	0xbdf24584	-0.11829665
28	0xbe1fba0e	-0.15598318
29	0x3c0e7f80	0.008697391
30	0x3e11dcb2	0.14244345
31	0xbe37b758	-0.17941034
