logs/dr/2020_9_24/21/model.pth (torch_old, 2298 bytes, 4 tensors)

encoder.layers.0.linear.bias f4 [16]
00000000: 6794 5dbe 35a6 e1be 829f babe 995b abbe
00000010: a421 dbbe 40ae 1abf 5baf 9fbe 189e 80be
00000020: 7f83 f9be 7fd2 abbe e04f 99be d47c 55be
00000030: ab4d b7be 187c edbe 4bb7 4abe e5b0 12bf
-0.21638642 -0.44072118 -0.3644982 -0.3346832 -0.42799103 -0.60422134 -0.31188473 -0.25120616
-0.48733136 -0.33559033 -0.29943752 -0.208484 -0.35801443 -0.4638374 -0.19796483 -0.5730117

encoder.layers.0.linear.weight f4 [16, 3]
00000000: 418f e2be 6bda b2be 814e c5be 3462 b1be
00000010: 830c bbbe c68f 92be 0473 81be 1b93 29be
00000020: c219 4cbe 17e4 373e 815d 4e3e 2fa9 453e
00000030: c08b 3d3d 8bd7 4e3d 146c 383d 52e9 373e
00000040: c0ca 323e d675 5d3e 9f90 0dbd 2fa1 6b3c
00000050: 250a 95bb 1276 e6bd 0124 f8bd 0492 adbd
00000060: c37d ac3e c057 ad3e 183d ac3e 1981 93be
00000070: 4dab 8dbe 9a01 93be 0728 e03c 0da1 aa3c
00000080: ae2f 453d 6de6 96bc 328c 5c3c f93a a33a
00000090: d79f 733e a3ac 703e c006 7d3e 9e42 3ebf
000000a0: bb3d 0ebf 50e2 1ebf 7cae 01be 5d01 fcbd
000000b0: 0bc5 02be dbc2 31be 274f 29be 9844 34be
-0.4424992 -0.34932265 -0.38536456 -0.34645236 -0.36532983 -0.28625315 -0.25283062 -0.16560023
-0.19931701 0.17958103 0.20152856 0.1930282 0.046275854 0.050498527 0.045024946 0.17960098
0.17460155 0.21626982 -0.03456175 0.014381691 -0.0045483285 -0.11252989 -0.12116242 -0.08475116
0.336897 0.3385601 0.3364036 -0.2880943 -0.27669755 -0.2871216 0.027362837 0.020828748
0.048141174 -0.018420422 0.01346116 0.0012453488 0.23791443 0.23503356 0.24709606 -0.743204
-0.55562943 -0.62064075 -0.12664217 -0.123049475 -0.12770478 -0.17359488 -0.165341 -0.17604291

decoder.cls.linear.weight f4 [2, 16]
00000000: 268a 443e 18d7 1d3e 826f 013e 9633 4c3e
00000010: cc45 bc3d d61c 083e f46f 543e 7851 4ebd
00000020: e4a7 47be 34cc fbbd c8b1 08bd 400c e1bc
00000030: 0016 deba d6b4 123e b83e a43d c848 3dbe
00000040: bcce 99bd 48e5 70bd 1ace 1b3e 30be b9bd
00000050: 8036 d6bd a0a3 24bd ec3c 82bd 1820 7cbd
00000060: 1e7b 7abe be17 643e ca3f 083e 8445 f2bd
00000070: 0eba 1fbe 807f 0e3c b2dc 113e 58b7 37be
0.19193324 0.15414083 0.12640193 0.19941553 0.09193 0.1329225 0.20745832 -0.050370663
-0.19497639 -0.12294808 -0.03337267 -0.027471662 -0.0016943812 0.14326796 0.08019775 -0.18484795
-0.075101346 -0.05881241 0.1521534 -0.090694785 -0.10459614 -0.040195107 -0.06359276 -0.061554044
-0.24461028 0.22274682 0.13305584 -0.11829665 -0.15598318 0.008697391 0.14244345 -0.17941034

decoder.cls.linear.bias f4 [2]
00000000: 4c5f c1bd 4028 d63d
-0.094420046 0.10456896
