logs/lp/2020_9_20/0/model.pth (torch_old, 95240 bytes, 4 tensors)

encoder.layers.0.linear.bias f4 [16]
00000000: e23b ed3c 9882 e93c 01bd 373d 9f14 ea3c
00000010: 8e8f f03c b68a 333d b2c8 fa3c b584 e03c
00000020: 1909 c43c 8d22 433d 882a 143d ece6 d73c
00000030: f63c f63c 5046 5a3d 8e73 e23c 62a2 083d
0.028959218 0.028504655 0.044857983 0.028574286 0.029365327 0.043833457 0.030613277 0.02740703
0.02393012 0.047640372 0.036173373 0.02635523 0.030058365 0.05328971 0.027642991 0.033357985

encoder.layers.0.linear.weight f4 [16, 1433]
00000000: a439 3dbd 3433 21bd f955 99bc 5b96 ce3b
00000010: d24a afbd e920 c5bc a839 44bd 8a31 293c
00000020: b560 773d f1de b93d bc7f 10bd a989 e239
00000030: 4186 39bd 9ef4 093d 4748 abbc e5f1 9fbd
00000040: 06b8 3c3d 9cf6 2dbd e002 5fbd 6291 8b3c
00000050: c2fe c83b 2728 b9bd 6d0d 14bd c25d a83d
00000060: a563 bb3c e9fc f6bc 7dd8 1e3c d1e0 823c
00000070: c499 0abd 3f0a 93bc 1588 7ebc 3616 533c
00000080: 906d 9ebc 59d2 ba39 a884 c8bc 142a 1cbc
00000090: 41b6 f63c dd85 acbb e828 f73d aa16 bd39
000000a0: 04fc cfbd 1b36 65bd d3c0 b03c 2c8a 53bd
000000b0: a01e e4bc d224 53bc 1c45 41bd 2e55 2dbd
000000c0: 03dc c0bc 6e35 8f3b c29c 5dbd a94a 4fbd
000000d0: f774 063e 2a12 19bd 918c 8fbd 0903 3ebd
000000e0: cfc2 0f3d f358 d5ba 14fe 1cbd 2767 283d
000000f0: 9bb4 9a3c eda0 91bd 7e34 6f3d 2248 763c
00000100: 8a05 b23d 3dcd 143d e1c9 8bbc 9785 123d
00000110: c2f5 80ba c1bc b3bc 8bcc cf3a 6c8d 213b
00000120: 9938 b83c 712f a23c d2f9 76bd e603 e7bc
00000130: ace6 443c 7251 2d3d 9cbf 92bd 588c ab3c
00000140: 239f 4eb7 c298 b8bc cdec 4ebd 8671 25bd
00000150: d894 90bb 730a 68bd 6270 6abd 5a3c d3bc
00000160: f817 cb3c 8ef3 5ebd fe7a 803d 573d 2c3c
00000170: 72da 2b3c 4c73 c1bd b546 debc 1be6 e739
00000180: 1573 983b 4e1c 2e3d d9c6 60bc 8127 cf3c
00000190: ad9d 963d 03de 9d3c fff0 0d3d 713f 873d
000001a0: 8f61 c63d ddf2 b9bc 580e 1dbd c5de 763c
000001b0: 0663 9dbd 1cad 86bc 2efd 91bc e155 623d
000001c0: 542b a5bc 4f03 2ebd 4b0b 89bc 9600 513d
000001d0: a3fd 623b e60f 83bc b994 503c f448 d3bc
000001e0: 8514 97bc 5f9b 74bd 6185 6abc 3c5d 383b
000001f0: 94ac 2a3d c764 933d e1f1 75bd 4545 143d
00000200: 7cba 043e 3c6b f93c 65c2 a93b 1452 7e3d
00000210: e5cd 563c 5fd7 213d 7805 37bc ce0d 1c3e
00000220: 4003 be3d 0653 ccbc ec59 923c 25ad f8bc
00000230: 8a21 413c c318 88bc 0a86 27bd 0ac8 023d
00000240: 7cae 5a3d 8ed3 d2bb 2e89 31bc 48a3 53bd
00000250: b9f6 d0bc 1194 5b3d fbad 0bbd 5dee 173e
00000260: 7298 04bb 9a0c fe3c c8b1 a3bd e033 09bd
00000270: b454 173d b5a7 123d d143 1fbd acee 73bc
00000280: 2985 e73c 2a20 00bc 418f d33d 9a30 37bd
00000290: 8575 0cbc 0641 b73b 3aad 493d b549 c23c
000002a0: 551b 24be 0c7d 153d 39c2 0a3d acf0 0d3d
000002b0: 9aca c03d f7a3 df3c 87b6 21bc e2bb e83d
000002c0: 29e4 95bc 1e43 ccbc abd5 a0bc e6f9 953c
000002d0: aa7b 24bd 3419 26bd 0b6b 0dbd 4626 d63d
000002e0: a7bf 7b3b 64de dc3c db6d 0dbc 778b 87bd
000002f0: 66c3 7fbc 2ee9 72bc 3da6 64bb bc50 ebbd
00000300: a8e3 2abc f953 ad3c c47d 22bd 7972 57bc
00000310: f3db 55bd 910d a8bd 75f4 383c 6f49 acb9
00000320: 355d ccbc e87e 48bc e3da d73c 270e 243d
00000330: e79e 893c 4720 a3bd 2021 e6bd 07cd d73b
00000340: a296 76bd 4761 55bb a849 91bc a71a 2cbd
00000350: fe5c fa3d f295 dd3d 4e4e a2bc 567d 00bd
00000360: 526b 133d e901 4fbd 119e 003d 24a1 f8bc
00000370: 19a3 093d ebee aabc 9568 fb3d 0c70 92bc
00000380: e3e8 cebc ce97 cabc dacb a53c 3a44 44bd
00000390: 6560 6a3b 7057 0e3d 60c5 fc3c c5b0 9e3c
000003a0: a978 f53c fee6 ddbc eb87 3fbd b1fb 97bd
000003b0: 9975 ed3d 91c2 773d 3b0e 033d 8d04 71bc
000003c0: a239 133d c5bf 4abc 4a8e f6bc c1b2 533c
000003d0: 479e f7bb de8d 88bd ab1d 49bd baba 04bd
000003e0: 547b 7abd c6f1 d43c d50b f13c af9c 0c3d
000003f0: 4424 02bd 37ec 87bc e626 86bc 6f40 34bd
-0.04619755 -0.03935547 -0.018717753 0.006304545 -0.08559193 -0.024063544 -0.047906548 0.010326752
0.06039496 0.09075726 -0.035278067 0.00043208644 -0.04529405 0.03368055 -0.020908488 -0.078098096
0.046073936 -0.042471513 -0.0544461 0.017037097 0.006133885 -0.090408616 -0.036145616 0.08221008
0.022874663 -0.030149894 0.0096951695 0.015976341 -0.03383805 -0.017949222 -0.015535374 0.0128837135
-0.019339353 0.00035633406 -0.024477318 -0.009531517 0.030116202 -0.005264981 0.12068349 0.00036065775
-0.1015549 -0.055959802 0.02157632 -0.051645443 -0.027846634 -0.012887197 -0.04718505 -0.04231756
-0.02354241 0.004370383 -0.054104574 -0.05060831 0.13130556 -0.03737084 -0.07009233 -0.046389613
0.035097893 -0.0016277119 -0.038328245 0.041114 0.018884948 -0.07110772 0.05839967 0.015031846
0.08692463 0.036328543 -0.017064037 0.035771932 -0.0009838867 -0.02194059 0.0015853805 0.0024650944
0.022487925 0.019798012 -0.06029684 -0.028200101 0.012017887 0.042314 -0.07165453 0.020940945
-1.2315609e-05 -0.022533778 -0.0505188 -0.040391468 -0.004412275 -0.05665059 -0.057236083 -0.025785614
0.024791703 -0.05443149 0.06273459 0.010512671 0.010489093 -0.09445819 -0.027133325 0.00044231195
0.0046523907 0.042507462 -0.013719284 0.025287392 0.07354293 0.019270902 0.03465366 0.06603897
0.096865766 -0.022698814 -0.038343757 0.015067761 -0.07684903 -0.016439967 -0.01782092 0.05525768
-0.020162262 -0.042483624 -0.016729018 0.05102595 0.0034636043 -0.015998792 0.012730771 -0.025791623
-0.018442402 -0.059718486 -0.014314027 0.0028131744 0.04166849 0.07196956 -0.060045127 0.036198873
0.12961763 0.030446641 0.0051806443 0.062089995 0.0131106125 0.039512035 -0.011170737 0.15239641
0.09277964 -0.024941932 0.017865144 -0.030356 0.0117877815 -0.01661337 -0.040899314 0.031929053
0.053389058 -0.0064339107 -0.010835929 -0.05166939 -0.025508272 0.053608004 -0.034101468 0.14837022
-0.0020232466 0.031011868 -0.079928935 -0.033496737 0.036946014 0.03580447 -0.038883034 -0.014888447
0.028261738 -0.0078201685 0.10330058 -0.044724084 -0.008572941 0.005592468 0.049237467 0.023716787
-0.16026051 0.036496207 0.03387663 0.03465335 0.09413643 0.027299864 -0.009870178 0.11363961
-0.018297272 -0.024934348 -0.019633135 0.018307637 -0.040156998 -0.04055138 -0.034525912 0.10456519
0.0038413794 0.026961513 -0.008632149 -0.06618398 -0.015610551 -0.014826102 -0.0034889125 -0.11490008
-0.010430254 0.021158205 -0.03967072 -0.013149851 -0.052211713 -0.082057126 0.011288752 -0.0003286111
-0.024946788 -0.012237288 0.02634949 0.04005256 0.016799403 -0.07965141 -0.11236787 0.0065857205
-0.06020225 -0.0032559203 -0.017735317 -0.042017605 0.12224768 0.108196154 -0.01981273 -0.03136953
0.03599102 -0.05053893 0.031400744 -0.030350275 0.033602808 -0.020865878 0.12275807 -0.017875694
-0.025257533 -0.02473059 0.020238806 -0.04791663 0.0035763022 0.034751356 0.030855834 0.0193714
0.029964762 -0.027087685 -0.04676048 -0.07421053 0.115946956 0.060488287 0.031995993 -0.014710558
0.035943635 -0.012374823 -0.030097146 0.012921036 -0.00755671 -0.06667684 -0.04910056 -0.03240464
-0.06115277 0.025994193 0.029424587 0.034329113 -0.031772867 -0.016592128 -0.01637597 -0.04400676

encoder.layers.1.linear.bias f4 [16]
00000000: dac5 8b3e 01cc 893e 50a7 633e 1b8a 9f3e
00000010: 49a6 c83e 1c0a e43e f025 b33e 74f3 9d3e
00000020: 747f af3e 1541 b73e bcf8 a33e 7497 ab3e
00000030: c83d 993e de84 823e 31f1 a53e 037c aa3e
0.27299386 0.26913455 0.22231793 0.31160054 0.39189366 0.44538963 0.34989882 0.30849802
0.34276927 0.3579184 0.32025707 0.33513987 0.29929948 0.25491995 0.32410577 0.33297738

encoder.layers.1.linear.weight f4 [16, 16]
00000000: 46ac 063e 4b06 623e a889 bd3c 20e9 d3be
00000010: fd83 183f 1343 ac3e 70af a0be ecd7 113f
00000020: 70ff 7d3d f608 123f a3ff 783e 71e2 733e
00000030: 0e7c c4be 48b2 053e e0eb 0f3d 301c 48bc
00000040: 4d2c 1f3d f1e4 263f ff2e 2bbe a5ea 27be
00000050: 8426 bb3e 5d86 9c3e e596 1a3f bffe aa3e
00000060: 7c4f 2f3e dda2 92be c7d3 9c3e 2695 103f
00000070: d7cf e73d a8e9 743e 903f 573e cc92 d53e
00000080: 0cb4 a63e 7cc6 e83d 49e8 efbe 87b6 36be
00000090: 2168 1a3f 2dee e43e 14f6 3cbe a9eb e23e
000000a0: 0f00 9f3e 8785 0a3f a6df 633e 52a0 30be
000000b0: e2aa 953e aa74 c53e f5cf 9b3e ebcc 103f
000000c0: fe53 1f3e 44af 143f 683c ed3e 4659 a73e
000000d0: 4dd1 1cbe 4bde b63e 7796 e03c d94a 3d3d
000000e0: 4868 e7be 216e 003e 2a92 13bf 837c 643e
000000f0: 04e7 acbe 10bf 003f a6b8 7c3d 343c d83e
00000100: cebd 39be 84d2 183f 85c3 f33e 6342 57be
00000110: c540 1d3f 5fc5 c5bd d670 b43d c537 e3be
00000120: a87e c6be 1df9 d1bd 00cd 943e f645 0b3e
00000130: 880f b73e 03ec 56bd 41ca 93bd e0d8 623e
00000140: d932 b83d 8f5e f7bd 2c92 98be 08df 903e
00000150: 45cd 633e 7b5a c8be 2883 af3e eed1 8ebe
00000160: 19bd 94be 277e 933e 891a 1b3e b412 5d3e
00000170: 47cf 2b3e b17a 70be d488 ca3d 4f18 2dbe
00000180: b1fb 1a3f 3b01 bd3e 4c45 34be 2c12 f13d
00000190: 26dd 44be b699 2bbe a038 f8bd 0642 623b
000001a0: 3c80 a4be d1f4 c03e 1080 d2be 4a8a bcbd
000001b0: 03a0 28be 02f6 1e3e f30c b03e 4b2b 273f
000001c0: 3c00 803e 481e 8a3e 46d7 ad3e 7810 9c3e
000001d0: 25b2 b0be 1f76 f53e ac4a 6bbd bc9e 91be
000001e0: 8525 b63e 3d67 babd 093b 7abd be2a babd
000001f0: 175f 9d3e c985 8d3e a1e6 66be 66ca b33e
00000200: 055b 8c3e 4e37 e0be 4645 a6be 708a cf3e
00000210: 2dfd 693e 0537 d83e edc6 d83e f381 073f
00000220: b582 acbe cebc 733e 23ec c93e 148b efbe
00000230: aea9 afbc 34bf 103f bdb1 8c3e b49b 81be
00000240: e144 1cbf 86df 303e c329 ca3d fc5f e63d
00000250: 95c0 debc d69c 4cbe 2e5c 0a3f 2cfd 67be
00000260: deb3 bc3e 84ed a03e 5ae2 1a3f feca cfbd
00000270: 384c 5f3e ad42 883e bef5 c83c f91c 58be
00000280: 0095 00bf 9255 9e3e 3d6f 95be cf4e 87bc
00000290: faee bebe 73ef 62bd 26db 013f ab59 aa3e
000002a0: 4178 dc3e 426e 013f c105 c13e 75e5 bd3e
000002b0: e0e1 2dbb d854 40be 15e2 ad3d 2e2f 243e
000002c0: 0a6d 1a3e 27c8 8dbe a9ee 663e 0aae 52be
000002d0: 9cb3 823e 18cb dcbd acce 84be 05a1 bf3e
000002e0: 1c5f 0e3f 5531 9b3e 0c8b 49be f77f 033f
000002f0: 8b2e 4cbe 5743 173f 551d cbbe 430c 073d
00000300: 2813 6a3e d29b ddbe 1872 be3e d31d e93e
00000310: 779b 52bd 8251 a03e 960f 853e a98a c7be
00000320: 4312 e23e 42af 093f 9ed4 163f a51c f4be
00000330: 0ee4 b63e 2692 f13e 0293 ae3d 3c3d c4bc
00000340: 4dae 303e 524a 9c3d ae20 943d c50d 9ebd
00000350: 8341 113f e845 b13e af1c 143f 6159 3dbe
00000360: f274 ca3d 427a 24bd d9c2 69be 7254 093f
00000370: e82f fc3e d92c 223e 18de d4be 37c8 5cbe
00000380: 2875 eb3d 5164 b53e 84f3 143f 5094 f33d
00000390: 5d1e 823c 4922 023f d807 70be 2741 87be
000003a0: d7aa 97be d860 9dbd b342 bfbd 28f6 32bd
000003b0: 55ee efbd ba99 163f 8215 5d3d aefa 5abe
000003c0: c647 a0be a5ae 9cbe 9516 86be 4530 fb3e
000003d0: 40ce ea3d fc50 32bd 04a5 0d3f dfe5 09ba
000003e0: ba4b 85bc 2a47 b03e afa1 74be c704 ad3e
000003f0: b232 99be 8397 e5bb f9be 003f 95ea 083f
0.13151655 0.22072713 0.023136929 -0.41388798 0.595764 0.33644924 -0.31383848 0.56970096
0.062011182 0.57044923 0.24316268 0.2381685 -0.38375896 0.1305629 0.035137057 -0.012213752
0.038860608 0.65193087 -0.16717146 -0.16398104 0.36552823 0.3057126 0.60386497 0.3339748
0.17120165 -0.2863988 0.30630323 0.5647758 0.11318939 0.23917258 0.21020341 0.4171356
0.3255924 0.11365983 -0.46856907 -0.17843066 0.6031514 0.44712964 -0.18453246 0.4432042
0.31054732 0.54109997 0.22253284 -0.17248657 0.29231936 0.3856557 0.30432096 0.5656268
0.15559384 0.58079934 0.4633515 0.32685298 -0.15314217 0.3571647 0.027415497 0.04621396
-0.45196748 0.12542011 -0.57644904 0.22313122 -0.3377 0.5029154 0.061699532 0.4223343
-0.18138811 0.5969622 0.47610107 -0.21021418 0.61426955 -0.09656786 0.08810584 -0.44378486
-0.38768506 -0.10252593 0.29062653 0.13600907 0.35754037 -0.052471172 -0.07216311 0.22153044
0.089940734 -0.120785825 -0.2979902 0.2829516 0.22246273 -0.3913153 0.34279752 -0.2789454
-0.2905052 0.28807184 0.15146841 0.21589166 0.16778289 -0.23484303 0.09889379 -0.16903804
0.605403 0.36915 -0.1760456 0.11771044 -0.19224986 -0.16757855 -0.12120175 0.0034524216
-0.32129085 0.3768678 -0.4111333 -0.09206064 -0.1646729 0.15523532 0.3438488 0.65300435
0.2500018 0.26976228 0.33953303 0.30481315 -0.34510913 0.47941682 -0.05744426 -0.28441417
0.355755 -0.091017224 -0.061091457 -0.09090184 0.3073661 0.27641132 -0.22548915 0.35115355
0.27413192 -0.43792194 -0.32474726 0.40535307 0.22850485 0.42229477 0.42339268 0.5293266
-0.33693472 0.23802492 0.3943797 -0.46785796 -0.021443214 0.5654175 0.27479354 -0.25314105
-0.610426 0.17272767 0.09871247 0.11248776 -0.02719144 -0.19981703 0.54046905 -0.22655171
0.36855978 0.3143121 0.60501635 -0.101461396 0.21806419 0.2661337 0.024531242 -0.21104802
-0.50227356 0.3092466 -0.2918643 -0.016517071 -0.372917 -0.055404138 0.5072502 0.33271536
0.43060496 0.50558865 0.37699702 0.37089124 -0.0026532337 -0.18782365 0.08490387 0.16033623
0.15080658 -0.27691767 0.22551979 -0.20574203 0.25527656 -0.107809246 -0.25938928 0.37427536
0.55613875 0.30311075 -0.19681948 0.51367134 -0.1993963 0.5908713 -0.39670816 0.032970678
0.2285887 -0.43282944 0.37196422 0.45530567 -0.051417794 0.31312186 0.25988454 -0.38972977
0.44154558 0.5378305 0.5891818 -0.47678104 0.35720867 0.47181815 0.08524133 -0.02395498
0.1725399 0.07631363 0.07232796 -0.0771747 0.5674059 0.34623647 0.5785627 -0.18491127
0.09885587 -0.040155657 -0.22828235 0.5364448 0.492553 0.1583742 -0.41575694 -0.21560751
0.11496955 0.35428098 0.58184075 0.11893523 0.015883619 0.50833565 -0.23440492 -0.26416895
-0.29622528 -0.07684487 -0.09338894 -0.043691784 -0.1171538 0.5882832 0.05397559 -0.21384689
-0.3130476 -0.30601993 -0.26189104 0.49060264 0.1146512 -0.043534264 0.5532992 -0.0005260389
-0.01627146 0.34429294 -0.23889802 0.33792707 -0.2992149 -0.007006587 0.502914 0.53482944
