logs/dr/2020_9_24/9/model.pth (torch_old, 2298 bytes, 4 tensors)

encoder.layers.0.linear.bias f4 [16]
-0.18495208 -0.06417863 -0.021598792 -0.095221065 -0.36946175 -0.26353836 -0.019486625 -0.0028776943
-0.77806103 -0.5375323 -0.06615251 -0.001239717 -0.39223808 -1.0274767 -0.20619075 -0.5505334
00000000: 1464 3dbe 1670 83bd f3ef b0bc 4303 c3bd
00000010: 172a bdbe 80ee 86be 6aa2 9fbc b397 3cbb
00000020: 022f 47bf b89b 09bf f87a 87bd 007e a2ba
00000030: 6ed3 c8be 5b84 83bf ab23 53be c2ef 0cbf

encoder.layers.0.linear.weight f4 [16, 3]
-0.011186249 0.0017551604 0.00011783639 -0.010465288 -0.0018982922 0.0014845721 -0.00988434 -0.0007391866
0.006140096 -0.008659621 0.0012967312 -0.00014851765 0.00063208846 0.0032005368 0.022021212 -9.085087e-05
0.0042625973 0.092172 -0.0015294271 0.00027267486 0.0013619207 -0.00022472095 3.7732512e-05 0.00080086186
0.0015736438 0.014652146 0.2773825 -0.24970765 -0.019592127 -0.0008350445 -0.0039352495 -0.0018786197
0.00075441337 -0.00014044187 8.403835e-06 0.0003037924 0.00065765774 0.0038566915 0.0190622 -0.5582774
-0.022454714 -0.002273652 -0.09887165 -0.008236648 -0.00013571177 -0.11343752 0.00324718 -0.0011306934
00000000: 8746 37bc 690d e63a ee1e f738 9976 2bbc
00000010: 1ed0 f8ba f995 c23a edf1 21bc f9c5 41ba
00000020: dc32 c93b 15e1 0dbc 14f7 a93a 67bb 1bb9
00000030: bdb2 253a 19c0 513b d465 b43c 3087 beb8
00000040: 42ad 8b3b acc4 bc3d 0f77 c8ba cdf5 8e39
00000050: 7a82 b23a 12a3 6bb9 fa42 1e38 eef0 513a
00000060: b942 ce3a 8e0f 703c 1405 8e3e 5db3 7fbe
00000070: ab7f a0bc e3e6 5aba 44f3 80bb 043c f6ba
00000080: d3c3 453a 9443 13b9 32fe 0c37 5346 9f39
00000090: aa66 2c3a 8cc0 7c3b 5528 9c3c 45eb 0ebf
000000a0: f3f2 b7bc 8d01 15bb 387d cabd 01f3 06bc
000000b0: da4d 0eb9 ee51 e8bd a4ce 543b c633 94ba

decoder.cls.linear.weight f4 [2, 16]
0.19193324 0.15414083 0.12640193 0.19941553 0.09193 0.1329225 0.20745832 -0.050370663
-0.19497639 -0.12294808 -0.03337267 -0.027471662 -0.0016943812 0.14326796 0.08019775 -0.18484795
-0.075101346 -0.05881241 0.1521534 -0.090694785 -0.10459614 -0.040195107 -0.06359276 -0.061554044
-0.24461028 0.22274682 0.13305584 -0.11829665 -0.15598318 0.008697391 0.14244345 -0.17941034
00000000: 268a 443e 18d7 1d3e 826f 013e 9633 4c3e
00000010: cc45 bc3d d61c 083e f46f 543e 7851 4ebd
00000020: e4a7 47be 34cc fbbd c8b1 08bd 400c e1bc
00000030: 0016 deba d6b4 123e b83e a43d c848 3dbe
00000040: bcce 99bd 48e5 70bd 1ace 1b3e 30be b9bd
00000050: 8036 d6bd a0a3 24bd ec3c 82bd 1820 7cbd
00000060: 1e7b 7abe be17 643e ca3f 083e 8445 f2bd
00000070: 0eba 1fbe 807f 0e3c b2dc 113e 58b7 37be

decoder.cls.linear.bias f4 [2]
-0.094420046 0.10456896
00000000: 4c5f c1bd 4028 d63d
