logs/dr/2020_9_24/16/model.pth (torch_old, 2219 bytes, 3 tensors)

encoder.layers.0.linear.bias f4 [16]
00000000: 0000 0000 0000 0000 0000 0000 0000 0000
00000010: 0000 0000 0000 0000 0000 0000 0000 0000
00000020: 0000 0000 0000 0000 0000 0000 0000 0000
00000030: 0000 0000 0000 0000 0000 0000 0000 0000
0.0 0.0 0.0 0.0 0.0 0.0 0.0 0.0
0.0 0.0 0.0 0.0 0.0 0.0 0.0 0.0

encoder.layers.0.linear.weight f4 [16, 4]
00000000: c4cd 3abf 24a0 1bbe 0d7d bebe 848e 53be
00000010: d12c 2fbf 849c a2be a7de 47bf 7d5f 313d
00000020: 5cdc 893e b58c 8ebd fbf9 9d3e 6184 543e
00000030: 0002 da3e 9133 a1bd 7a68 dabe 2c9d bd3e
00000040: 1296 abbe e292 49be 0d3b fdbe aacc e53e
00000050: b493 203e 15c8 f7be e02a f6be 63b8 963e
00000060: e803 393f fe51 eebd d40b 09be cf18 ed3c
00000070: 546b e13e b029 07bf b57b f03d 51db 03be
00000080: 2076 e53e ffb9 09be 5d3d 9abd 7766 b43e
00000090: 7e46 083f 3724 cfbd 6047 0e3f 1313 04bf
000000a0: c07c 0dbe 7df9 89be 00d2 84bd a2be 993e
000000b0: 318b a0be 1e92 bd3e 0f09 7dbe 0f99 10bf
000000c0: 2c3d 183f 50e4 873e 4bfa 9c3e 2c2c 303f
000000d0: dcd5 913e 923d da3e 2d60 ff3e 868c b6bc
000000e0: 1aa7 1abf 98fa 68be 48d3 83be 4bb6 583c
000000f0: 0007 acbb 0e9d fa3e 2ed6 e13d 2760 e4be
-0.72970223 -0.15197808 -0.3720478 -0.20659834 -0.6842776 -0.31760037 -0.78074116 0.043303955
0.26925933 -0.069604315 0.30854782 0.20753624 0.4257965 -0.07871164 -0.42657834 0.37033975
-0.33512932 -0.19684938 -0.49459115 0.4488271 0.15681344 -0.48394838 -0.48079586 0.2943755
0.72271585 -0.116367325 -0.13383418 0.028942494 0.44027197 -0.52797985 0.11742345 -0.12876631
0.44816685 -0.13449858 -0.07531235 0.35234424 0.5323256 -0.10114329 0.5557766 -0.51591605
-0.1381712 -0.26948157 -0.06485367 0.30028254 -0.31356195 0.3702554 -0.24710487 -0.5648355
0.5946834 0.26541376 0.30659708 0.688174 0.28483474 0.426251 0.49878064 -0.022283804
-0.60411227 -0.22751844 -0.25747132 0.013227056 -0.005249858 0.48947948 0.1102718 -0.44604608

decoder.cls.linear.weight f4 [2, 16]
00000000: bcce 99bd 48e5 70bd 1ace 1b3e 30be b9bd
00000010: 8036 d6bd a0a3 24bd ec3c 82bd 1820 7cbd
00000020: 1e7b 7abe be17 643e ca3f 083e 8445 f2bd
00000030: 0eba 1fbe 807f 0e3c b2dc 113e 58b7 37be
00000040: 4c5f c1bd 4028 d63d ae1f 25be 800b e4bc
00000050: 900c 41be d871 6d3e 8cfe 093e 90a0 6cbe
00000060: 5457 0dbe b07e b53d 407b 603c 4caf 873d
00000070: a26d 51be 9e12 09be 4850 e83d 5633 43be
-0.075101346 -0.05881241 0.1521534 -0.090694785 -0.10459614 -0.040195107 -0.06359276 -0.061554044
-0.24461028 0.22274682 0.13305584 -0.11829665 -0.15598318 0.008697391 0.14244345 -0.17941034
-0.094420046 0.10456896 -0.16125366 -0.027837515 -0.18852448 0.23187959 0.13476008 -0.23108125
-0.13802844 0.08862054 0.01370126 0.06625232 -0.20451978 -0.13386008 0.113434374 -0.19062552
