logs/dr/2020_9_24/32/model.pth (torch_old, 3090 bytes, 2 tensors)

encoder.layers.0.linear.weight f4 [100, 3]
00000000: 2284 b540 fb32 e040 3df9 d5c0 aa2a ebbc
00000010: 7d7f 24bf e1e2 a03d b5dd bd40 6d36 e040
00000020: 54e5 d540 9e80 cf40 2e81 dd40 2e44 d840
00000030: 8c41 da40 d2c7 db40 f74c dac0 3c2b e140
00000040: c0f3 d840 c745 d340 bfdf ce40 026d dd40
00000050: 2f0f d840 1415 a7bd ea34 d5be abce a5bc
00000060: f251 e040 853d da40 9d78 d340 1c19 d340
00000070: b9b1 dc40 f84c d9c0 e9af df40 8b39 d940
00000080: aa30 d440 a02d d240 d9b2 dc40 a76d d740
00000090: 8e58 e140 1b7d d840 230c d540 9804 ba40
000000a0: b5e4 de40 3270 dac0 021c d840 57f4 da40
000000b0: ab48 d8c0 bd82 df40 593e d940 85de d4c0
000000c0: 367c dd40 573b db40 b825 d840 ddee de40
000000d0: ad2f da40 85c5 d340 5dd2 e340 63f7 d740
000000e0: a383 d4c0 85fa c640 05a0 de40 e048 d5c0
000000f0: 5a6e d340 61bb dc40 b038 d840 ba32 b940
00000100: d9fb df40 9b98 d5c0 b21e e340 d757 d840
00000110: 0539 d4c0 2f18 94bc c9a7 5cbe 6f69 1bbd
00000120: f124 c440 2830 e140 8b96 d740 c554 ccbd
00000130: f35b 02bf bdd7 cabc c25c e640 1f38 d740
00000140: 3116 d5c0 077a a23d caea 05bf f8e2 e7bb
00000150: 592a c640 1dfa e040 6f96 d740 39ef af40
00000160: baa9 e040 31ab d940 a40b d840 6e35 db40
00000170: 01f3 d7c0 78cf cf40 9548 dd40 0ec5 d7c0
00000180: a9ca d240 928a dc40 e7e2 d740 cd8b d740
00000190: 5531 db40 075d d740 a419 db40 f355 da40
000001a0: 7b70 d740 c489 e040 d72d da40 de8a d6c0
000001b0: af6e 2bbe 0cc2 5abf fc3f 2abd e8ca c640
000001c0: 5797 de40 57a7 d5c0 e24b de40 5674 dd40
000001d0: e693 d340 ea7e d040 5bca dc40 aebb d8c0
000001e0: bc10 c940 9ad6 de40 8357 d840 e152 bd40
000001f0: a233 e040 fc07 d640 d414 dbbc 3780 c0be
00000200: 3215 0f3d 7307 cf40 24a4 dd40 2a83 d840
00000210: e182 7f3d ba29 eabe 88dc 6bbd 2833 dd40
00000220: d374 da40 9f5e d8c0 cf56 d340 33aa dd40
00000230: 4a43 dac0 7bcc e240 f37e d840 20bb d3c0
00000240: f349 ca3d 7493 26bf c52e 19bc b3a7 e040
00000250: 3dd2 d940 e1ba d5c0 c963 ce40 98bb de40
00000260: a7da d740 b257 e640 0617 d740 e45d d240
00000270: 567c d940 fadf da40 19bb d640 3c23 da40
00000280: 4428 dc40 215c d840 06aa df40 c62e d940
00000290: 8dee d4c0 67d4 aa40 9199 df40 8c55 dcc0
000002a0: 432a dc40 9d2d da40 1d30 d7c0 078a c540
000002b0: 7679 e140 98e9 d740 9658 d640 4baf de40
000002c0: 4708 dbc0 d16b d5bd a32b 08bf 2af5 d3bc
000002d0: 0e68 c640 4247 e040 bddd d640 7a03 e440
000002e0: 5b36 d840 9c09 d4c0 8706 dd40 bd84 d940
000002f0: 63c2 d840 b188 d240 2f79 dc40 15a6 d7c0
00000300: 1619 da40 08df da40 3ba9 d640 d8e2 de40
00000310: 9fa6 d940 be89 d440 7597 cd40 1e7d de40
00000320: 467e d8c0 084b e440 8234 d740 de66 d640
00000330: 73d0 df40 565e db40 8573 d840 68ac 483d
00000340: 3690 a5be 6219 86bb 5973 df40 318f d940
00000350: 568e d240 7378 e840 cd70 d540 ed5c dac0
00000360: 981d ca40 d531 de40 93c1 d4c0 577c de40
00000370: 52ab d940 cac4 d4c0 1660 d440 0cfa dc40
00000380: 4dfa d8c0 e210 e040 dcbc d940 f22e d440
00000390: 152d 30be 04cd 60bf ade2 2ebd 7ebc 1ebe
000003a0: 048b 4abf 0e80 1dbd ec60 e640 9425 d640
000003b0: 82bb d840 373f cf40 9b2f de40 d4b2 d7c0
000003c0: 481e a940 ee1f e140 1c99 d4c0 25f2 b640
000003d0: 4951 e040 4a15 d5c0 715f d340 a071 dc40
000003e0: d7a2 d740 c8f4 c840 39fb de40 3254 d5c0
000003f0: a8d6 d940 87d1 dd40 c5b1 cd40 46dc d540
5.6723795 7.006223 -6.6866746 -0.028706867 -0.6425703 0.07855774 5.933314 7.006644
6.684244 6.4844503 6.922019 6.7583227 6.8205013 6.868142 -6.821895 7.0365276
6.7797546 6.6022677 6.4648128 6.9195566 6.7518535 -0.08158317 -0.41641933 -0.020240149
7.010003 6.8200097 6.6084733 6.596815 6.8966947 -6.7906456 6.9902234 6.7882743
6.6309404 6.5680695 6.896832 6.7321353 7.04206 6.7652717 6.6577315 5.8130608
6.9654183 -6.8261957 6.753419 6.8423266 -6.7588706 6.9847093 6.788861 -6.652163
6.9214125 6.8509936 6.7546043 6.966658 6.81832 6.6178613 7.119429 6.7489486
-6.641069 6.218081 6.9570336 -6.665146 6.6072206 6.8978734 6.75692 5.787442
6.999493 -6.6748786 7.097497 6.7607226 -6.6319604 -0.018077938 -0.2154838 -0.037942346
6.1295094 7.0371284 6.737127 -0.09977106 -0.50921553 -0.024761075 7.198823 6.7256007
-6.658959 0.07933431 -0.52311385 -0.0070766173 6.1926694 7.0305314 6.7371135 5.497952
7.0207186 6.8021474 6.751421 6.850272 -6.7484136 6.494076 6.91511 -6.7428045
6.587239 6.8919153 6.746448 6.7358155 6.849772 6.730106 6.84688 6.822992
6.7324805 7.016817 6.8180957 -6.7044516 -0.16741441 -0.8545234 -0.041564927 6.212269
6.955974 -6.676677 6.946763 6.920451 6.611804 6.5154924 6.8997016 -6.77291
6.283293 6.9636965 6.7606826 5.916367 7.006303 6.6884747 -0.02674333 -0.3759782
0.034932323 6.4696593 6.9262867 6.766011 0.062380675 -0.4573496 -0.057583362 6.9124947
6.826761 -6.7615504 6.6043468 6.9270263 -6.820714 7.087461 6.7654967 -6.6165924
0.09877386 -0.65068746 -0.00934953 7.020471 6.806914 -6.6790624 6.449681 6.9603996
6.745441 7.198205 6.7215605 6.5739613 6.7964277 6.839841 6.710339 6.816801
6.879915 6.761246 6.989505 6.7869596 -6.65412 5.338428 6.987496 -6.8854427
6.880159 6.818068 -6.724623 6.173099 7.046077 6.747265 6.6983137 6.958898
-6.8447604 -0.10420955 -0.53191584 -0.02587374 6.200202 7.0086985 6.7145677 7.1254244
6.756635 -6.626173 6.907047 6.7974534 6.773729 6.579186 6.889793 -6.7390237
6.8155622 6.8397255 6.708158 6.965191 6.8015895 6.641814 6.4247384 6.952773
-6.765414 7.134159 6.7251596 6.700057 6.9941955 6.8552656 6.7641015 0.048992544
-0.32336587 -0.0040923813 6.9828305 6.7987294 6.579875 7.2647033 6.6700196 -6.8238435
6.3161125 6.943583 -6.6486297 6.952678 6.802163 -6.649022 6.6367292 6.9055233
-6.7805543 7.002061 6.804304 6.6307306 -0.17204697 -0.8781283 -0.042696644 -0.15501592
-0.7911837 -0.0384522 7.1993313 6.692087 6.772889 6.4764667 6.943311 -6.7405796
5.2849464 7.0351477 -6.64369 5.7170587 7.0099225 -6.658849 6.6054006 6.8888702
6.738628 6.2798805 6.968167 -6.6665277 6.807453 6.931827 6.4279504 6.683139

decoder.cls.linear.weight f4 [2, 100]
00000000: 50a7 bfbb 702d 593c 8dbb b93d cef3 333d
00000010: 28e1 2cbc bad0 723d 2e91 3a3d 5402 dcbc
00000020: 52b2 253d 98dc 013c 2a12 18bd 5880 00bc
00000030: 4dc2 c03d ec12 f63c 8b15 a9bd 9383 823d
00000040: 7404 b03c 727d 493d 004e dc39 bae7 223d
00000050: 94de f43c 4fd1 b33d a629 583d 1d40 33bd
00000060: 72a6 563d b059 c2bb 276a 873d 06b9 0fbd
00000070: d870 f0bc 2f63 bd3d 9457 903c 58b6 653c
00000080: 3004 283c 209a d53b e0e1 893b 3af7 b1bd
00000090: 73b0 c53d 4185 c33d 35fd 8cbd 6891 ca3c
000000a0: b149 a93d 08a2 9e3c a22f 303d 6188 983d
000000b0: 12de 2d3d 0013 94bc be3f aabd ca2a 41bd
000000c0: f0db 73bd a091 043b ce02 91bd e10b 823d
000000d0: 805c a13c 6369 31bd a059 6dbd d22c 063d
000000e0: 9419 c4bc 4083 9c3c 58ef 193c d8cb 4b3c
000000f0: 28bc 62bc 4c88 a0bc c016 c0bc 2af1 1d3d
00000100: b608 84bd c095 193b 3d70 26bd 82a0 c2bd
00000110: 1485 e63c 3c6b fc3c c93d b63d 0f90 863d
00000120: 2173 c83d 66ef a0bd 4d44 b2bd dcca fe3c
00000130: 02bd 483d 9673 343d d4dc 86bd 6545 a03d
00000140: 0504 b2bd 744b da3c 6dd3 1cbd dc67 13bd
00000150: d1d5 a13d 8923 b13d b60a 1f3d b292 373d
00000160: 40eb 7f3b 6d20 7bbd c498 d53c bf22 b03d
00000170: aaa0 2b3d 0fb3 b7bd 6c76 acbc baa8 023d
00000180: 0014 97bc ccd2 febc 778e b3bd 50c0 273c
00000190: 0472 db3c 8323 babd a064 9c3c 4c83 f63c
000001a0: fad6 183d 4569 853d ed07 72bd 7e6f 053d
000001b0: 807a 173c 68e8 edbc 80a2 c7bb 1914 ca3d
000001c0: 402d 533b 9824 ddbc 8045 c03a f3b8 45bd
000001d0: e7ad 6dbd 20ad b8bc 5e25 543d 00b3 fdbb
000001e0: e8d4 bfbc 7223 2a3d e23a 633d 6c27 97bc
000001f0: f4da cebc ac8c 8a3c 73b5 5ebd 91eb 963d
00000200: 0090 e4bc 7adf 09bd 1b4c bb3d b28b 9ebd
00000210: 0066 dcbc b352 b93d cd4b 3ebd 2c51 abbc
00000220: e162 c43d d08e 07bd 5219 3d3d 62c2 2f3d
00000230: 080e 9e3c b59c adbd 3ea2 84bd 7a83 a3bd
00000240: 25d4 c9bd c875 e4bc 7043 403c b057 b3bd
00000250: ea78 b9bd e0a7 a43b f44e 18bd 882b 973c
00000260: 8ce7 a93c c5c4 cb3d c02f 6dbb cdc0 a5bd
00000270: 6248 87bd f8ae bcbd 2831 96bc b0b4 3b3c
00000280: ba2e 073d b454 9c3c 9417 bc3c 9096 623c
00000290: a850 11bc 23c1 37bd 1830 c13c 10b5 573c
000002a0: 2840 e6bc 113f 953d 6051 c7bd 04c2 f03c
000002b0: 8a39 67bd 46ca 583d 252b a03d c317 913d
000002c0: 320f 1d3d f796 43bd 089a b4bc 4cd1 e5bc
000002d0: 303a 463c cad2 46bd 5e26 473d de8d 6e3d
000002e0: c0d4 25bd 78fd ebbc 8be2 8fbd 977a 63bd
000002f0: 3a9c 49bd 59a4 8e3d c305 afbd 7c42 f53c
00000300: eba4 b73d b513 88bd ed90 b4bd 5af6 5d3d
00000310: eed6 7a3d 2e66 2b3d e761 a13d f977 813d
-0.0058488026 0.013255462 0.090689756 0.043933682 -0.010551728 0.05928109 0.04554861 -0.026856579
0.040453263 0.007926129 -0.037126698 -0.0078431 0.0941206 0.03003832 -0.08256062 0.06372752
0.021486498 0.0491919 0.00042019784 0.039771773 0.02989129 0.08780157 0.052774094 -0.043762315
0.05240483 -0.0059311017 0.06612044 -0.03508856 -0.029350683 0.092474334 0.017619886 0.014020525
0.010254905 0.0065186173 0.0042078346 -0.08689733 0.09652796 0.095469005 -0.06884233 0.024727538
0.08266009 0.019364372 0.043014176 0.07447887 0.04244811 -0.018075466 -0.08312939 -0.047159947
-0.05953592 0.00202284 -0.07080613 0.06349922 0.019697428 -0.043313395 -0.0579468 0.032757588
-0.023937978 0.019105554 0.009395443 0.012438737 -0.013838805 -0.019596241 -0.023448348 0.03856007
-0.06446974 0.0023435205 -0.040634383 -0.09503271 0.028139628 0.030812852 0.08898503 0.06570446
0.09787584 -0.07858162 -0.087044336 0.03110259 0.049008377 0.044055544 -0.06585088 0.07825736
-0.08692173 0.026647307 -0.03828757 -0.03598772 0.0790211 0.08649356 0.038828574 0.044817634
0.0039050132 -0.06131022 0.02607382 0.08600377 0.041901268 -0.089696996 -0.021052562 0.03189919
-0.018442154 -0.031106375 -0.087674074 0.010238722 0.026787765 -0.090888046 0.01909095 0.030091904
0.037314393 0.06514219 -0.05908959 0.03257703 0.009245515 -0.029041484 -0.0060923696 0.098671146
0.0032223016 -0.026994988 0.001466915 -0.048272084 -0.058027174 -0.02254349 0.05179345 -0.0077422857
-0.023416951 0.04153771 0.055476077 -0.018451415 -0.02525089 0.01691278 -0.054372262 0.073691495
-0.027900696 -0.03366039 0.09145375 -0.077414885 -0.026904106 0.09048977 -0.046459008 -0.02091273
0.09589172 -0.03309518 0.046166725 0.042909987 0.0192938 -0.08477155 -0.06476258 -0.079840615
-0.098549165 -0.027888194 0.011734828 -0.087569594 -0.09056266 0.005024895 -0.03718467 0.018453375
0.020740293 0.0994964 -0.0036191791 -0.080934145 -0.06605603 -0.0921306 -0.018333986 0.0114566535
0.033003546 0.019083358 0.022960462 0.013829842 -0.008869328 -0.044861924 0.023582503 0.013165727
-0.028106764 0.072874196 -0.09732318 0.029389389 -0.056451358 0.052927278 0.07820729 0.0708461
0.03834457 -0.047751393 -0.022046104 -0.028053902 0.012098834 -0.048540868 0.048620574 0.058240764
-0.040486097 -0.028807387 -0.070256315 -0.055536833 -0.049221255 0.069649406 -0.08546021 0.029938929
0.089670025 -0.06644384 -0.08816705 0.054190017 0.06124013 0.041845493 0.078800015 0.06321711
