logs/dr/2020_9_24/42/model.pth (torch_old, 4172 bytes, 3 tensors)

encoder.layers.0.linear.bias f4 [100]
0.0 0.0 0.0 0.0 0.0 0.0 0.0 0.0
0.0 0.0 0.0 0.0 0.0 0.0 0.0 0.0
0.0 0.0 0.0 0.0 0.0 0.0 0.0 0.0
0.0 0.0 0.0 0.0 0.0 0.0 0.0 0.0
0.0 0.0 0.0 0.0 0.0 0.0 0.0 0.0
0.0 0.0 0.0 0.0 0.0 0.0 0.0 0.0
0.0 0.0 0.0 0.0 0.0 0.0 0.0 0.0
0.0 0.0 0.0 0.0 0.0 0.0 0.0 0.0
0.0 0.0 0.0 0.0 0.0 0.0 0.0 0.0
0.0 0.0 0.0 0.0 0.0 0.0 0.0 0.0
0.0 0.0 0.0 0.0 0.0 0.0 0.0 0.0
0.0 0.0 0.0 0.0 0.0 0.0 0.0 0.0
0.0 0.0 0.0 0.0
00000000: 0000 0000 0000 0000 0000 0000 0000 0000
00000010: 0000 0000 0000 0000 0000 0000 0000 0000
00000020: 0000 0000 0000 0000 0000 0000 0000 0000
00000030: 0000 0000 0000 0000 0000 0000 0000 0000
00000040: 0000 0000 0000 0000 0000 0000 0000 0000
00000050: 0000 0000 0000 0000 0000 0000 0000 0000
00000060: 0000 0000 0000 0000 0000 0000 0000 0000
00000070: 0000 0000 0000 0000 0000 0000 0000 0000
00000080: 0000 0000 0000 0000 0000 0000 0000 0000
00000090: 0000 0000 0000 0000 0000 0000 0000 0000
000000a0: 0000 0000 0000 0000 0000 0000 0000 0000
000000b0: 0000 0000 0000 0000 0000 0000 0000 0000
000000c0: 0000 0000 0000 0000 0000 0000 0000 0000
000000d0: 0000 0000 0000 0000 0000 0000 0000 0000
000000e0: 0000 0000 0000 0000 0000 0000 0000 0000
000000f0: 0000 0000 0000 0000 0000 0000 0000 0000
00000100: 0000 0000 0000 0000 0000 0000 0000 0000
00000110: 0000 0000 0000 0000 0000 0000 0000 0000
00000120: 0000 0000 0000 0000 0000 0000 0000 0000
00000130: 0000 0000 0000 0000 0000 0000 0000 0000
00000140: 0000 0000 0000 0000 0000 0000 0000 0000
00000150: 0000 0000 0000 0000 0000 0000 0000 0000
00000160: 0000 0000 0000 0000 0000 0000 0000 0000
00000170: 0000 0000 0000 0000 0000 0000 0000 0000
00000180: 0000 0000 0000 0000 0000 0000 0000 0000

encoder.layers.0.linear.weight f4 [100, 3]
-0.048523 -0.25357905 -0.01215765 0.025071122 -0.43249375 -3.7891255e-06 -0.040152002 -0.20908894
-0.010276506 0.007312181 -0.04873878 -0.0003491256 -0.010021227 -0.051243465 -0.0024931992 -0.014536158
-0.26706007 -0.030449318 0.0061779865 -0.05994529 0.00041277535 0.0021719027 -0.28335446 -0.041766237
0.014793671 -0.09514763 -0.0043929275 -0.0024957138 -0.055804987 0.006820242 -0.024249382 -0.25081515
0.015433176 0.011804097 -0.11244107 -0.014796001 -0.005078057 -0.24445307 0.026894512 -0.024129475
-0.27203783 -0.046664625 -0.0050644167 -0.07881794 0.007863145 -0.019945996 -0.2346348 -0.04061893
-0.011213731 -0.058261577 -0.003114702 0.012457304 -0.10474412 -0.013670974 0.03517104 -0.2566517
-0.029332265 -0.014021821 -0.17024492 0.012895021 -0.010573627 -0.054510288 -0.0026326017 -0.038493443
-0.2565299 -0.00065602316 0.024620803 -0.26507878 0.013820546 0.010593416 -0.19360884 0.00923814
0.0020826184 -0.030675946 0.001989784 -0.019668505 -0.34604463 -0.05668541 0.019061435 -0.39987236
0.026415722 -0.006586998 -0.35932603 0.016726486 0.0020669317 -0.02736457 0.0016684872 -0.07013103
-0.37659442 -0.01880975 -0.010154169 -0.12202031 -0.021348748 0.0099909855 -0.07703632 0.002059909
-0.0014315106 -0.065608874 -0.011072833 -0.013580915 -0.0828837 -0.0076100756 -0.011430945 -0.25986695
0.031662814 0.01588814 -0.104653105 -0.0026308352 -0.0915015 -0.5216542 -0.03391932 -0.0018806518
-0.20404935 0.018938404 -0.0056345803 -0.028516153 -0.0013883371 0.007964767 -0.054956246 -0.0006800205
-0.005947832 -0.13302107 0.016256496 -0.044879764 -0.23711334 -0.012027171 -0.042516176 -0.47532248
0.0316887 0.007153238 -0.047458466 -0.0005480473 -0.02045938 -0.32768095 0.028152065 -0.014086308
-0.07204663 -0.0035166894 -0.0037409435 -0.04256191 0.0031672418 0.028699711 -0.24825704 0.009434407
0.0063514123 -0.43043008 0.028278641 0.018831579 -0.12400071 -0.0033685481 0.0024010837 -0.033065658
0.0020652274 0.036923237 -0.37683392 -0.045810897 -0.007032152 -0.15723565 0.019216685 -0.00944303
-0.048266314 -0.0023492798 -0.020197297 -0.24027376 -0.041692443 -0.07390134 -0.3959642 -0.017757054
-0.015996039 -0.08205729 -0.0040065986 0.0028196473 -0.023389068 -0.003042479 -0.006024462 -0.0307769
-0.001495655 -0.029629055 -0.3476044 0.0017300696 0.005517194 -0.03602373 -0.0013269819 0.0023822288
-0.3339514 -0.0012743069 -0.012479694 -0.28056097 0.034254353 0.014576432 -0.09630734 -0.0019686879
0.007193171 -0.2194116 -0.0032205402 0.017936163 -0.11557318 -0.005101779 0.004858273 -0.03204274
-0.0008180596 0.016548624 -0.33255035 0.024640905 0.008436499 -0.06453659 -0.008198782 -0.015118106
-0.29985732 -0.005161269 -0.014608102 -0.19969866 -0.03339161 -0.006638145 -0.5091904 -0.08362558
-0.011547036 -0.1248196 0.008350897 -0.028768713 -0.2293343 -0.03202537 -0.0073656044 -0.048949018
0.00011959968 0.013291427 -0.15936163 0.00907792 -0.094946176 -0.51778996 -0.027060453 -0.086257294
-0.4668782 -0.023151474 -0.019829514 -0.47570035 0.04302152 -0.001724985 -0.038113125 0.004635102
-0.07859803 -0.42324737 -0.020319726 -0.043606393 -0.22619618 -0.010925212 0.0148866465 -0.098426044
-0.0024951377 -0.0065915803 -0.077724434 0.005973777 -0.0065687043 -0.033549152 -0.0016290369 -0.01112872
00000000: 0ec0 46bd 1dd5 81be e130 47bc f461 cd3c
00000010: d26f ddbe ae48 7eb6 6d76 24bd 691b 56be
00000020: ca5e 28bc 059b ef3b 51a2 47bd d80a b7b9
00000030: 1330 24bc abe4 51bd f164 23bb 1129 6ebc
00000040: 19bc 88be d970 f9bc b570 ca3b 3189 75bd
00000050: c569 d839 7b56 0e3b d613 91be 1313 2bbd
00000060: 2761 723c c3dc c2bd 8cf2 8fbb 218f 23bb
00000070: c593 64bd 567c df3b a4a6 c6bc d86a 80be
00000080: 6fdb 7c3c f965 413c 8147 e6bd ed6a 72bc
00000090: d465 a6bb e851 7abe e151 dc3c 2dab c5bc
000000a0: 8b48 8bbe 6823 3fbd 68f3 a5bb 4d6b a1bd
000000b0: 6cd4 003c c965 a3bc 1b44 70be 0960 26bd
000000c0: ccb9 37bc b1a3 6ebd 0720 4cbb b819 4c3c
000000d0: 1684 d6bd 39fc 5fbc 820f 103d da67 83be
000000e0: 384a f0bc c8bb 65bc af54 2ebe a345 533c
000000f0: 023d 2dbc 2e46 5fbd ba87 2cbb 4dab 1dbd
00000100: e357 83be f8f8 2bba 91b1 c93c 68b8 87be
00000110: 926f 623c 0290 2d3c 6541 46be 915b 173c
00000120: 8a7c 083b 1f4c fbbc 0967 023b d81f a1bc
00000130: c32c b1be f62e 68bd ba26 9c3c 12bc ccbe
00000140: c965 d83c bed7 d7bb 95f9 b7be fc05 893c
00000150: 5c75 073b aa2b e0bc 24b1 da3a dca0 8fbd
00000160: fcd0 c0be e816 9abc ac5d 26bc c9e5 f9bd
00000170: 92e3 aebc 3bb1 233c 38c5 9dbd 8aff 063b
00000180: 86a1 bbba f25d 86bd d46a 35bc 7c82 5ebc
00000190: eebe a9bd f15d f9bb dc48 3bbc 480d 85be
000001a0: deb0 013d d827 823c 5e54 d6bd 176a 2cbb
000001b0: 2365 bbbd 218b 05bf fcee 0abd 3480 f6ba
000001c0: 50f2 50be b624 9b3c 49a2 b8bb b59a e9bc
000001d0: ddf8 b5ba a77e 023c cd19 61bd 6743 32ba
000001e0: 08e6 c2bb ad36 08be 582c 853c d8d3 37bd
000001f0: d7cd 72be 9d0d 45bc 7125 2ebd 785d f3be
00000200: 03cc 013d b665 ea3b cf63 42bd d5aa 0fba
00000210: 6e9a a7bc ccc5 a7be 299f e63c 42ca 66bc
00000220: 2f8d 93bd 4278 66bb 9e2a 75bb 6655 2ebd
00000230: 8091 4f3b a81b eb3c 1837 7ebe c592 1a3c
00000240: 821f d03b 5561 dcbe 9ca8 e73c af44 9a3c
00000250: 16f4 fdbd dcc2 5cbb 805b 1d3b db6f 07bd
00000260: c458 073b d23c 173d 60f0 c0be 35a4 3bbd
00000270: f76d e6bb 6202 21be 4f6c 9d3c f0b6 1abc
00000280: e6b2 45bd 60f6 19bb cd74 a5bc 530a 76be
00000290: b2c5 2abd 9659 97bd d2bb cabe 3e77 91bc
000002a0: 200a 83bc a70d a8bd c949 83bb d5c9 383b
000002b0: 6e9a bfbc 5464 47bb da68 c5bb d61f fcbc
000002c0: db09 c4ba a2b8 f2bc 34f9 b1be 81c3 e23a
000002d0: 94c9 b43b 9e8d 13bd 20ee adba 2b1f 1c3b
000002e0: aefb aabe a506 a7ba a177 4cbc b0a5 8fbe
000002f0: 4b4e 0c3d fdd1 6e3c c83c c5bd 1a05 01bb
00000300: b1b4 eb3b 6fad 60be b30f 53bb dcee 923c
00000310: a2b1 ecbd d32c a7bb 2632 9f3b 403f 03bd
00000320: 0d73 56ba fb90 873c 0a44 aabe b9db c93c
00000330: 3e39 0a3c c22b 84bd 2f54 06bc efb1 77bc
00000340: e686 99be dd1f a9bb d256 6fbc ce7d 4cbe
00000350: a4c5 08bd cc84 d9bb 4d5a 02bf e343 abbd
00000360: c72f 3dbc 6ba1 ffbd 33d2 083c 5dac ebbc
00000370: 9cd6 6abe 092d 03bd 2b5b f1bb c47e 48bd
00000380: 97d1 fa38 49c4 593c b22f 23be 8ebb 143c
00000390: 2473 c2bd e28d 04bf e2ad ddbc aaa7 b0bd
000003a0: a90a efbe 29a8 bdbc 8171 a2bc ff8e f3be
000003b0: 5537 303d e418 e2ba 821c 1cbd 0ee2 973b
000003c0: 01f8 a0bd e1b3 d8be 8e75 a6bc 9e9c 32bd
000003d0: f99f 67be a9ff 32bc 1fe7 733c 9893 c9bd
000003e0: 7785 23bb 2ffe d7bb fd2d 9fbd acbf c33b
000003f0: 493e d7bb d66a 09bd 6885 d5ba 3c55 36bc

decoder.cls.linear.weight f4 [2, 100]
-0.0058488026 0.013255462 0.090689756 0.043933682 -0.010551728 0.05928109 0.04554861 -0.026856579
0.040453263 0.007926129 -0.037126698 -0.0078431 0.0941206 0.03003832 -0.08256062 0.06372752
0.021486498 0.0491919 0.00042019784 0.039771773 0.02989129 0.08780157 0.052774094 -0.043762315
0.05240483 -0.0059311017 0.06612044 -0.03508856 -0.029350683 0.092474334 0.017619886 0.014020525
0.010254905 0.0065186173 0.0042078346 -0.08689733 0.09652796 0.095469005 -0.06884233 0.024727538
0.08266009 0.019364372 0.043014176 0.07447887 0.04244811 -0.018075466 -0.08312939 -0.047159947
-0.05953592 0.00202284 -0.07080613 0.06349922 0.019697428 -0.043313395 -0.0579468 0.032757588
-0.023937978 0.019105554 0.009395443 0.012438737 -0.013838805 -0.019596241 -0.023448348 0.03856007
-0.06446974 0.0023435205 -0.040634383 -0.09503271 0.028139628 0.030812852 0.08898503 0.06570446
0.09787584 -0.07858162 -0.087044336 0.03110259 0.049008377 0.044055544 -0.06585088 0.07825736
-0.08692173 0.026647307 -0.03828757 -0.03598772 0.0790211 0.08649356 0.038828574 0.044817634
0.0039050132 -0.06131022 0.02607382 0.08600377 0.041901268 -0.089696996 -0.021052562 0.03189919
-0.018442154 -0.031106375 -0.087674074 0.010238722 0.026787765 -0.090888046 0.01909095 0.030091904
0.037314393 0.06514219 -0.05908959 0.03257703 0.009245515 -0.029041484 -0.0060923696 0.098671146
0.0032223016 -0.026994988 0.001466915 -0.048272084 -0.058027174 -0.02254349 0.05179345 -0.0077422857
-0.023416951 0.04153771 0.055476077 -0.018451415 -0.02525089 0.01691278 -0.054372262 0.073691495
-0.027900696 -0.03366039 0.09145375 -0.077414885 -0.026904106 0.09048977 -0.046459008 -0.02091273
0.09589172 -0.03309518 0.046166725 0.042909987 0.0192938 -0.08477155 -0.06476258 -0.079840615
-0.098549165 -0.027888194 0.011734828 -0.087569594 -0.09056266 0.005024895 -0.03718467 0.018453375
0.020740293 0.0994964 -0.0036191791 -0.080934145 -0.06605603 -0.0921306 -0.018333986 0.0114566535
0.033003546 0.019083358 0.022960462 0.013829842 -0.008869328 -0.044861924 0.023582503 0.013165727
-0.028106764 0.072874196 -0.09732318 0.029389389 -0.056451358 0.052927278 0.07820729 0.0708461
0.03834457 -0.047751393 -0.022046104 -0.028053902 0.012098834 -0.048540868 0.048620574 0.058240764
-0.040486097 -0.028807387 -0.070256315 -0.055536833 -0.049221255 0.069649406 -0.08546021 0.029938929
0.089670025 -0.06644384 -0.08816705 0.054190017 0.06124013 0.041845493 0.078800015 0.06321711
00000000: 50a7 bfbb 702d 593c 8dbb b93d cef3 333d
00000010: 28e1 2cbc bad0 723d 2e91 3a3d 5402 dcbc
00000020: 52b2 253d 98dc 013c 2a12 18bd 5880 00bc
00000030: 4dc2 c03d ec12 f63c 8b15 a9bd 9383 823d
00000040: 7404 b03c 727d 493d 004e dc39 bae7 223d
00000050: 94de f43c 4fd1 b33d a629 583d 1d40 33bd
00000060: 72a6 563d b059 c2bb 276a 873d 06b9 0fbd
00000070: d870 f0bc 2f63 bd3d 9457 903c 58b6 653c
00000080: 3004 283c 209a d53b e0e1 893b 3af7 b1bd
00000090: 73b0 c53d 4185 c33d 35fd 8cbd 6891 ca3c
000000a0: b149 a93d 08a2 9e3c a22f 303d 6188 983d
000000b0: 12de 2d3d 0013 94bc be3f aabd ca2a 41bd
000000c0: f0db 73bd a091 043b ce02 91bd e10b 823d
000000d0: 805c a13c 6369 31bd a059 6dbd d22c 063d
000000e0: 9419 c4bc 4083 9c3c 58ef 193c d8cb 4b3c
000000f0: 28bc 62bc 4c88 a0bc c016 c0bc 2af1 1d3d
00000100: b608 84bd c095 193b 3d70 26bd 82a0 c2bd
00000110: 1485 e63c 3c6b fc3c c93d b63d 0f90 863d
00000120: 2173 c83d 66ef a0bd 4d44 b2bd dcca fe3c
00000130: 02bd 483d 9673 343d d4dc 86bd 6545 a03d
00000140: 0504 b2bd 744b da3c 6dd3 1cbd dc67 13bd
00000150: d1d5 a13d 8923 b13d b60a 1f3d b292 373d
00000160: 40eb 7f3b 6d20 7bbd c498 d53c bf22 b03d
00000170: aaa0 2b3d 0fb3 b7bd 6c76 acbc baa8 023d
00000180: 0014 97bc ccd2 febc 778e b3bd 50c0 273c
00000190: 0472 db3c 8323 babd a064 9c3c 4c83 f63c
000001a0: fad6 183d 4569 853d ed07 72bd 7e6f 053d
000001b0: 807a 173c 68e8 edbc 80a2 c7bb 1914 ca3d
000001c0: 402d 533b 9824 ddbc 8045 c03a f3b8 45bd
000001d0: e7ad 6dbd 20ad b8bc 5e25 543d 00b3 fdbb
000001e0: e8d4 bfbc 7223 2a3d e23a 633d 6c27 97bc
000001f0: f4da cebc ac8c 8a3c 73b5 5ebd 91eb 963d
00000200: 0090 e4bc 7adf 09bd 1b4c bb3d b28b 9ebd
00000210: 0066 dcbc b352 b93d cd4b 3ebd 2c51 abbc
00000220: e162 c43d d08e 07bd 5219 3d3d 62c2 2f3d
00000230: 080e 9e3c b59c adbd 3ea2 84bd 7a83 a3bd
00000240: 25d4 c9bd c875 e4bc 7043 403c b057 b3bd
00000250: ea78 b9bd e0a7 a43b f44e 18bd 882b 973c
00000260: 8ce7 a93c c5c4 cb3d c02f 6dbb cdc0 a5bd
00000270: 6248 87bd f8ae bcbd 2831 96bc b0b4 3b3c
00000280: ba2e 073d b454 9c3c 9417 bc3c 9096 623c
00000290: a850 11bc 23c1 37bd 1830 c13c 10b5 573c
000002a0: 2840 e6bc 113f 953d 6051 c7bd 04c2 f03c
000002b0: 8a39 67bd 46ca 583d 252b a03d c317 913d
000002c0: 320f 1d3d f796 43bd 089a b4bc 4cd1 e5bc
000002d0: 303a 463c cad2 46bd 5e26 473d de8d 6e3d
000002e0: c0d4 25bd 78fd ebbc 8be2 8fbd 977a 63bd
000002f0: 3a9c 49bd 59a4 8e3d c305 afbd 7c42 f53c
00000300: eba4 b73d b513 88bd ed90 b4bd 5af6 5d3d
00000310: eed6 7a3d 2e66 2b3d e761 a13d f977 813d
