logs/dr/2020_9_24/7/model.pth (torch_old, 2298 bytes, 4 tensors)

encoder.layers.0.linear.bias f4 [16]
0	0xbb02ab19	-0.0019938408
1	0xb0f2f6cb	-1.767796e-09
2	0xbb5b7491	-0.0033486227
3	0xb2f020c3	-2.7954576e-08
4	0xbbb2a921	-0.0054522906
5	0xa62a3bac	-5.906147e-16
6	0xb43a29f7	-1.7337867e-07
7	0xbc90ab2f	-0.017659752
8	0xbce5b4e1	-0.028040351
9	0xbbfe543e	-0.0077615073
10	0xba24511c	-0.000626819
11	0xbde94626	-0.11390333
12	0xbc809638	-0.01569663
13	0xaf5247c7	-1.9124889e-10
14	0xba553ff3	-0.00081348344
15	0xbd801f93	-0.06256022

encoder.layers.0.linear.weight f4 [16, 3]
0	0xb7de18c0	-2.6475987e-05
1	0x38acd381	8.240995e-05
2	0x393e83eb	0.00018168955
3	0xb01d1816	-5.7150495e-10
4	0x2e511376	4.7538383e-11
5	0x2f721b6a	2.2019511e-10
6	0xba92014f	-0.0011139306
7	0xb70eea5c	-8.518426e-06
8	0x3a32f100	0.0006826073
9	0x2d781ce4	1.4103583e-11
10	0x30a6b462	1.2129358e-09
11	0x32ac7798	2.007782e-08
12	0x37142d91	8.832097e-06
13	0x38ac35fd	8.211655e-05
14	0x3b31430a	0.0027048015
15	0xa5ac292d	-2.9865146e-16
16	0x22b1f874	4.8239006e-18
17	0xa46b58dd	-5.1032772e-17
18	0xb4232cc0	-1.5196838e-07
19	0xb23d2de7	-1.1011685e-08
20	0x326948a0	1.3578898e-08
21	0xba18d6c7	-0.0005830344
22	0xba67c97e	-0.00088419754
23	0x3bbb1471	0.005709224
24	0x38890dbc	6.535227e-05
25	0x3a1a9745	0.00058971747
26	0x3c4f2c4f	0.012644841
27	0xbba9d4f7	-0.005182858
28	0xb982c991	-0.0002494571
29	0xb7053ea1	-7.942e-06
30	0x35724012	9.024526e-07
31	0x36d15d05	6.2395143e-06
32	0x3964a6e5	0.00021805947
33	0xbcaeaa96	-0.021321576
34	0xba5d37bc	-0.0008438786
35	0x3cc0185e	0.02344912
36	0xbc0d6676	-0.008630386
37	0xb9b87058	-0.00035178917
38	0x3b148f05	0.0022668254
39	0xae8210b4	-5.9146826e-11
40	0xab983655	-1.081533e-12
41	0x2ba84ad0	1.1957883e-12
42	0xb992828a	-0.0002794455
43	0xb9170b14	-0.00014404609
44	0x383a53ee	4.442402e-05
45	0xbd078b15	-0.033091623
46	0xbaa6336e	-0.0012680122
47	0x37f340fc	2.8998118e-05

decoder.cls.linear.weight f4 [2, 16]
0	0x3e448a26	0.19193324
1	0x3e1dd718	0.15414083
2	0x3e016f82	0.12640193
3	0x3e4c3396	0.19941553
4	0x3dbc45cc	0.09193
5	0x3e081cd6	0.1329225
6	0x3e546ff4	0.20745832
7	0xbd4e5178	-0.050370663
8	0xbe47a7e4	-0.19497639
9	0xbdfbcc34	-0.12294808
10	0xbd08b1c8	-0.03337267
11	0xbce10c40	-0.027471662
12	0xbade1600	-0.0016943812
13	0x3e12b4d6	0.14326796
14	0x3da43eb8	0.08019775
15	0xbe3d48c8	-0.18484795
16	0xbd99cebc	-0.075101346
17	0xbd70e548	-0.05881241
18	0x3e1bce1a	0.1521534
19	0xbdb9be30	-0.090694785
20	0xbdd63680	-0.10459614
21	0xbd24a3a0	-0.040195107
22	0xbd823cec	-0.06359276
23	0xbd7c2018	-0.061554044
24	0xbe7a7b1e	-0.24461028
25	0x3e6417be	0.22274682
26	0x3e083fca	0.13305584
27	0xbdf24584	-0.11829665
28	0xbe1fba0e	-0.15598318
29	0x3c0e7f80	0.008697391
30	0x3e11dcb2	0.14244345
31	0xbe37b758	-0.17941034

decoder.cls.linear.bias f4 [2]
0	0xbdc15f4c	-0.094420046
1	0x3dd62840	0.10456896
