logs/dr/2020_9_24/35/model.pth (torch_old, 3090 bytes, 2 tensors)

encoder.layers.0.linear.weight f4 [100, 3]
0	0x40b65dd5	5.698954
1	0x40e01c6c	7.0034695
2	0xc0d61e50	-6.6912003
3	0xbf9f706c	-1.2456183
4	0xc0d8e65c	-6.77812
5	0xbeb266c3	-0.34844026
6	0x40be8b81	5.9545293
7	0x40e01e80	7.003723
8	0x40d5ccbc	6.681242
9	0x40cf7190	6.4826126
10	0x40dd822c	6.92214
11	0x40d82110	6.754036
12	0x40da400a	6.8203173
13	0x40dbc7dd	6.8681474
14	0xc0da3904	-6.81946
15	0x40e144e8	7.0396614
16	0x40d8ede8	6.7790413
17	0x40d3229d	6.5979753
18	0x40cecb3d	6.4623094
19	0x40dd6ebb	6.919767
20	0x40d7ea0e	6.747321
21	0xbf9d13cc	-1.2271667
22	0xc0d5922d	-6.6740937
23	0xbeaef9a7	-0.34174845
24	0x40e05601	7.0104985
25	0x40da3bfc	6.8198223
26	0x40d349a1	6.602738
27	0x40d30ee0	6.595566
28	0x40dcb1ea	6.896718
29	0xc0d94041	-6.7890935
30	0x40dfc207	6.992435
31	0x40d934aa	6.7876787
32	0x40d417d5	6.627909
33	0x40d2668c	6.575018
34	0x40dca3d2	6.8949976
35	0x40d754a9	6.7290845
36	0x40e16ab7	7.0442767
37	0x40d879fd	6.764891
38	0x40d4c987	6.6496005
39	0x40bb400f	5.8515697
40	0x40dec6ee	6.9617834
41	0xc0da675d	-6.8251176
42	0x40d817bb	6.752897
43	0x40daf498	6.8423576
44	0xc0d833ac	-6.7563076
45	0x40df8e6b	6.986135
46	0x40d93aa9	6.7884107
47	0xc0d4c58b	-6.649114
48	0x40dd7cb6	6.9214735
49	0x40db3b15	6.850962
50	0x40d80abd	6.751311
51	0x40def46e	6.9673376
52	0x40da2d53	6.8180327
53	0x40d3a107	6.6134067
54	0x40e3e6c1	7.121918
55	0x40d7f217	6.748302
56	0xc0d46edb	-6.638532
57	0x40c7496f	6.227714
58	0x40de91c5	6.955294
59	0xc0d54e14	-6.665781
60	0x40d366ac	6.606283
61	0x40dcbb3d	6.897856
62	0x40d81bec	6.7534084
63	0x40b9bf9a	5.804639
64	0x40dfed25	6.9976983
65	0xc0d5b12b	-6.677877
66	0x40e33610	7.1003494
67	0x40d852bb	6.760099
68	0xc0d42248	-6.6291847
69	0xbf9c8206	-1.222718
70	0xc0d4d74a	-6.6512804
71	0xbeaee210	-0.34156847
72	0x40c408a0	6.126053
73	0x40e130aa	7.0371904
74	0x40d770d7	6.7325244
75	0xbf9bb1ad	-1.2163597
76	0xc0d3c3e3	-6.617662
77	0xbead85fb	-0.3389128
78	0xbf878054	-1.0586038
79	0xc0b841a2	-5.758012
80	0xbe97322b	-0.29530463
81	0xbf9d4e29	-1.2289478
82	0xc0d60a0a	-6.6887255
83	0xbeaf9c1a	-0.34298784
84	0x40c61311	6.1898274
85	0x40e0faf4	7.030634
86	0x40d76c7c	6.7319927
87	0x40b67805	5.702151
88	0x40e027ce	7.004859
89	0x40d988ae	6.7979345
90	0x40d805e1	6.7507176
91	0x40db34ec	6.85021
92	0xc0d7dd39	-6.7457547
93	0x40cfb60c	6.4909725
94	0x40dd4a1c	6.9152966
95	0xc0d7acec	-6.7398586
96	0x40d2c020	6.5859528
97	0x40dc8ac5	6.8919396
98	0x40d7c468	6.7427254
99	0x40d7892d	6.735495
100	0x40db30c4	6.849703
101	0x40d74085	6.726626
102	0x40db1bfe	6.847167
103	0x40da546d	6.822806
104	0x40d75bc6	6.729953
105	0x40e08ffb	7.0175757
106	0x40da2c36	6.817897
107	0xc0d66ab5	-6.7005258
108	0xbf954fd4	-1.1664987
109	0xc0cb0dde	-6.345443
110	0xbea695c7	-0.32536146
111	0x40ca8afd	6.3294663
112	0x40de0f3f	6.939361
113	0xc0d58ede	-6.67369
114	0x40de4a06	6.946536
115	0x40dd7448	6.9204445
116	0x40d35d80	6.6051636
117	0x40d0731b	6.514051
118	0x40dccb2f	6.8998027
119	0xc0d8a1f1	-6.769768
120	0x40c99172	6.2990046
121	0x40deb8a4	6.960039
122	0x40d863e6	6.7621946
123	0x40bde042	5.933625
124	0x40e0219e	7.0041037
125	0x40d5f1e4	6.6857777
126	0xbf9745ae	-1.181814
127	0xc0cdcd3f	-6.4313045
128	0xbea8acf0	-0.3294444
129	0x40cef76d	6.4677033
130	0x40dda535	6.926417
131	0x40d85b5b	6.761152
132	0xbf9f3ecc	-1.2441039
133	0xc0d8a591	-6.7702107
134	0xbeb20575	-0.34769788
135	0x40dd35c3	6.9128127
136	0x40da744b	6.826696
137	0xc0d841cf	-6.7580333
138	0x40d34cb6	6.603114
139	0x40ddab2f	6.9271464
140	0xc0da29e5	-6.817614
141	0x40e2e17c	7.090025
142	0x40d87aad	6.764975
143	0xc0d39f06	-6.613162
144	0xbf9cec2c	-1.2259574
145	0xc0d57860	-6.670944
146	0xbeaf64bf	-0.3425655
147	0x40e0affb	7.021482
148	0x40d9cfee	6.806632
149	0xc0d5992b	-6.6749473
150	0x40ce5721	6.448136
151	0x40debc03	6.9604506
152	0x40d7b28a	6.7405443
153	0x40e68075	7.203181
154	0x40d70c2b	6.7202353
155	0x40d24ae8	6.571644
156	0x40d97df2	6.796624
157	0x40dadd7e	6.8395376
158	0x40d69e58	6.706829
159	0x40da20d2	6.8165064
160	0x40dc285c	6.8799267
161	0x40d840b2	6.7578974
162	0x40dfb60d	6.990973
163	0x40d92b23	6.7865157
164	0xc0d4d6ba	-6.6512117
165	0x40b16cd8	5.5445366
166	0x40df7b00	6.9837646
167	0xc0daf0e1	-6.841904
168	0x40dc2e97	6.880687
169	0x40da2d94	6.8180637
170	0xc0d6f86d	-6.7178254
171	0x40c571ec	6.1701565
172	0x40e17a42	7.046174
173	0x40d7bec7	6.7420382
174	0x40d6529e	6.697585
175	0x40deafce	6.9589605
176	0xc0daf59a	-6.8424807
177	0xbf970b2c	-1.1800284
178	0xc0cd73a7	-6.4203677
179	0xbea8241b	-0.32840046
180	0x40c64bfa	6.1967745
181	0x40e04863	7.0088363
182	0x40d6acf4	6.7086124
183	0x40e381bd	7.109587
184	0x40d86efd	6.7635484
185	0x40d0e547	6.527988
186	0x40dd14c7	6.9087863
187	0x40d9849c	6.7974377
188	0x40d86fa7	6.7636294
189	0x40d27091	6.576241
190	0x40dc7b3c	6.8900433
191	0xc0d7919e	-6.7365255
192	0x40da45c2	6.8210154
193	0x40dad2b0	6.8382187
194	0x40d67f2a	6.703023
195	0x40dee852	6.9658594
196	0x40d9a4eb	6.8013816
197	0x40d4632a	6.637105
198	0x40cd89f0	6.423088
199	0x40de7eb8	6.9529686
200	0xc0d855d1	-6.7604756
201	0x40e465fc	7.1374493
202	0x40d72e90	6.724434
203	0x40d65c88	6.6987953
204	0x40dfd22e	6.9944067
205	0x40db6be2	6.8569193
206	0x40d75012	6.728524
207	0xbf9dcbc9	-1.2327815
208	0xc0d6bb3e	-6.7103567
209	0xbeb02cda	-0.3440922
210	0x40df8210	6.984627
211	0x40d98b2b	6.7982383
212	0x40d269aa	6.5753984
213	0x40e86e5e	7.2634726
214	0x40d57d17	6.6715198
215	0xc0da608f	-6.824287
216	0x40ca7e58	6.327923
217	0x40de1ed2	6.9412622
218	0xc0d4c09a	-6.648511
219	0x40de8682	6.9539194
220	0x40d9a85c	6.8018017
221	0xc0d4ad21	-6.646134
222	0x40d45825	6.63576
223	0x40dcfac1	6.9056096
224	0xc0d8e24b	-6.7776237
225	0x40e01afd	7.0032945
226	0x40d9b8b2	6.803796
227	0x40d409ba	6.6261873
228	0xbf94e62a	-1.163274
229	0xc0ca7df2	-6.327874
230	0xbea57fb2	-0.32323986
231	0xbf931bf4	-1.1492906
232	0xc0c8350d	-6.256476
233	0xbea4355c	-0.3207196
234	0x40e5db76	7.1830397
235	0x40d6b20b	6.7092338
236	0x40d63c42	6.6948557
237	0x40cf31be	6.474822
238	0x40de30db	6.943464
239	0xc0d7914c	-6.7364864
240	0x40b82db2	5.755578
241	0x40dff93f	6.9991755
242	0xc0d33aeb	-6.600942
243	0x40b7c962	5.743333
244	0x40e038b7	7.006923
245	0xc0d53c63	-6.6636214
246	0x40d37ffb	6.6093726
247	0x40dc679b	6.887647
248	0x40d78924	6.735491
249	0x40c94805	6.2900414
250	0x40dee407	6.9653354
251	0xc0d555d2	-6.666726
252	0x40d9cf6a	6.806569
253	0x40ddd3cb	6.9321036
254	0x40cd3301	6.412476
255	0x40d5d4bb	6.682218

decoder.cls.linear.weight f4 [2, 100]
0	0xbbbfa750	-0.0058488026
1	0x3c592d70	0.013255462
2	0x3db9bb8d	0.090689756
3	0x3d33f3ce	0.043933682
4	0xbc2ce128	-0.010551728
5	0x3d72d0ba	0.05928109
6	0x3d3a912e	0.04554861
7	0xbcdc0254	-0.026856579
8	0x3d25b252	0.040453263
9	0x3c01dc98	0.007926129
10	0xbd18122a	-0.037126698
11	0xbc008058	-0.0078431
12	0x3dc0c24d	0.0941206
13	0x3cf612ec	0.03003832
14	0xbda9158b	-0.08256062
15	0x3d828393	0.06372752
16	0x3cb00474	0.021486498
17	0x3d497d72	0.0491919
18	0x39dc4e00	0.00042019784
19	0x3d22e7ba	0.039771773
20	0x3cf4de94	0.02989129
21	0x3db3d14f	0.08780157
22	0x3d5829a6	0.052774094
23	0xbd33401d	-0.043762315
24	0x3d56a672	0.05240483
25	0xbbc259b0	-0.0059311017
26	0x3d876a27	0.06612044
27	0xbd0fb906	-0.03508856
28	0xbcf070d8	-0.029350683
29	0x3dbd632f	0.092474334
30	0x3c905794	0.017619886
31	0x3c65b658	0.014020525
32	0x3c280430	0.010254905
33	0x3bd59a20	0.0065186173
34	0x3b89e1e0	0.0042078346
35	0xbdb1f73a	-0.08689733
36	0x3dc5b073	0.09652796
37	0x3dc38541	0.095469005
38	0xbd8cfd35	-0.06884233
39	0x3cca9168	0.024727538
40	0x3da949b1	0.08266009
41	0x3c9ea208	0.019364372
42	0x3d302fa2	0.043014176
43	0x3d988861	0.07447887
44	0x3d2dde12	0.04244811
45	0xbc941300	-0.018075466
46	0xbdaa3fbe	-0.08312939
47	0xbd412aca	-0.047159947
48	0xbd73dbf0	-0.05953592
49	0x3b0491a0	0.00202284
50	0xbd9102ce	-0.07080613
51	0x3d820be1	0.06349922
52	0x3ca15c80	0.019697428
53	0xbd316963	-0.043313395
54	0xbd6d59a0	-0.0579468
55	0x3d062cd2	0.032757588
56	0xbcc41994	-0.023937978
57	0x3c9c8340	0.019105554
58	0x3c19ef58	0.009395443
59	0x3c4bcbd8	0.012438737
60	0xbc62bc28	-0.013838805
61	0xbca0884c	-0.019596241
62	0xbcc016c0	-0.023448348
63	0x3d1df12a	0.03856007
64	0xbd8408b6	-0.06446974
65	0x3b1995c0	0.0023435205
66	0xbd26703d	-0.040634383
67	0xbdc2a082	-0.09503271
68	0x3ce68514	0.028139628
69	0x3cfc6b3c	0.030812852
70	0x3db63dc9	0.08898503
71	0x3d86900f	0.06570446
72	0x3dc87321	0.09787584
73	0xbda0ef66	-0.07858162
74	0xbdb2444d	-0.087044336
75	0x3cfecadc	0.03110259
76	0x3d48bd02	0.049008377
77	0x3d347396	0.044055544
78	0xbd86dcd4	-0.06585088
79	0x3da04565	0.07825736
80	0xbdb20405	-0.08692173
81	0x3cda4b74	0.026647307
82	0xbd1cd36d	-0.03828757
83	0xbd1367dc	-0.03598772
84	0x3da1d5d1	0.0790211
85	0x3db12389	0.08649356
86	0x3d1f0ab6	0.038828574
87	0x3d3792b2	0.044817634
88	0x3b7feb40	0.0039050132
89	0xbd7b206d	-0.06131022
90	0x3cd598c4	0.02607382
91	0x3db022bf	0.08600377
92	0x3d2ba0aa	0.041901268
93	0xbdb7b30f	-0.089696996
94	0xbcac766c	-0.021052562
95	0x3d02a8ba	0.03189919
96	0xbc971400	-0.018442154
97	0xbcfed2cc	-0.031106375
98	0xbdb38e77	-0.087674074
99	0x3c27c050	0.010238722
100	0x3cdb7204	0.026787765
101	0xbdba2383	-0.090888046
102	0x3c9c64a0	0.01909095
103	0x3cf6834c	0.030091904
104	0x3d18d6fa	0.037314393
105	0x3d856945	0.06514219
106	0xbd7207ed	-0.05908959
107	0x3d056f7e	0.03257703
108	0x3c177a80	0.009245515
109	0xbcede868	-0.029041484
110	0xbbc7a280	-0.0060923696
111	0x3dca1419	0.098671146
112	0x3b532d40	0.0032223016
113	0xbcdd2498	-0.026994988
114	0x3ac04580	0.001466915
115	0xbd45b8f3	-0.048272084
116	0xbd6dade7	-0.058027174
117	0xbcb8ad20	-0.02254349
118	0x3d54255e	0.05179345
119	0xbbfdb300	-0.0077422857
120	0xbcbfd4e8	-0.023416951
121	0x3d2a2372	0.04153771
122	0x3d633ae2	0.055476077
123	0xbc97276c	-0.018451415
124	0xbccedaf4	-0.02525089
125	0x3c8a8cac	0.01691278
126	0xbd5eb573	-0.054372262
127	0x3d96eb91	0.073691495
128	0xbce49000	-0.027900696
129	0xbd09df7a	-0.03366039
130	0x3dbb4c1b	0.09145375
131	0xbd9e8bb2	-0.077414885
132	0xbcdc6600	-0.026904106
133	0x3db952b3	0.09048977
134	0xbd3e4bcd	-0.046459008
135	0xbcab512c	-0.02091273
136	0x3dc462e1	0.09589172
137	0xbd078ed0	-0.03309518
138	0x3d3d1952	0.046166725
139	0x3d2fc262	0.042909987
140	0x3c9e0e08	0.0192938
141	0xbdad9cb5	-0.08477155
142	0xbd84a23e	-0.06476258
143	0xbda3837a	-0.079840615
144	0xbdc9d425	-0.098549165
145	0xbce475c8	-0.027888194
146	0x3c404370	0.011734828
147	0xbdb357b0	-0.087569594
148	0xbdb978ea	-0.09056266
149	0x3ba4a7e0	0.005024895
150	0xbd184ef4	-0.03718467
151	0x3c972b88	0.018453375
152	0x3ca9e78c	0.020740293
153	0x3dcbc4c5	0.0994964
154	0xbb6d2fc0	-0.0036191791
155	0xbda5c0cd	-0.080934145
156	0xbd874862	-0.06605603
157	0xbdbcaef8	-0.0921306
158	0xbc963128	-0.018333986
159	0x3c3bb4b0	0.0114566535
160	0x3d072eba	0.033003546
161	0x3c9c54b4	0.019083358
162	0x3cbc1794	0.022960462
163	0x3c629690	0.013829842
164	0xbc1150a8	-0.008869328
165	0xbd37c123	-0.044861924
166	0x3cc13018	0.023582503
167	0x3c57b510	0.013165727
168	0xbce64028	-0.028106764
169	0x3d953f11	0.072874196
170	0xbdc75160	-0.09732318
171	0x3cf0c204	0.029389389
172	0xbd67398a	-0.056451358
173	0x3d58ca46	0.052927278
174	0x3da02b25	0.07820729
175	0x3d9117c3	0.0708461
176	0x3d1d0f32	0.03834457
177	0xbd4396f7	-0.047751393
178	0xbcb49a08	-0.022046104
179	0xbce5d14c	-0.028053902
180	0x3c463a30	0.012098834
181	0xbd46d2ca	-0.048540868
182	0x3d47265e	0.048620574
183	0x3d6e8dde	0.058240764
184	0xbd25d4c0	-0.040486097
185	0xbcebfd78	-0.028807387
186	0xbd8fe28b	-0.070256315
187	0xbd637a97	-0.055536833
188	0xbd499c3a	-0.049221255
189	0x3d8ea459	0.069649406
190	0xbdaf05c3	-0.08546021
191	0x3cf5427c	0.029938929
192	0x3db7a4eb	0.089670025
193	0xbd8813b5	-0.06644384
194	0xbdb490ed	-0.08816705
195	0x3d5df65a	0.054190017
196	0x3d7ad6ee	0.06124013
197	0x3d2b662e	0.041845493
198	0x3da161e7	0.078800015
199	0x3d8177f9	0.06321711
