logs/dr/2020_9_24/18/model.pth (torch_old, 1982 bytes, 3 tensors)

encoder.layers.0.linear.bias f4 [16]
0	0x00000000	0.0
1	0x00000000	0.0
2	0x00000000	0.0
3	0x00000000	0.0
4	0x00000000	0.0
5	0x00000000	0.0
6	0x00000000	0.0
7	0x00000000	0.0
8	0x00000000	0.0
9	0x00000000	0.0
10	0x00000000	0.0
11	0x00000000	0.0
12	0x00000000	0.0
13	0x00000000	0.0
14	0x00000000	0.0
15	0x00000000	0.0

encoder.layers.0.linear.weight f4 [16, 3]
0	0xbed1af5c	-0.409541
1	0xbebbf42c	-0.36709726
2	0xbebc71bd	-0.36805525
3	0xbea1e912	-0.3162313
4	0xbe8f0995	-0.27936998
5	0xbe8fcf3c	-0.28087795
6	0xbe772dbb	-0.24138539
7	0xbe5b8839	-0.21438684
8	0xbe5d2516	-0.21596178
9	0x3b3d265c	0.0028861975
10	0x3b3e4831	0.0029034729
11	0x3b481ae9	0.0030533618
12	0x3d05d264	0.032671347
13	0x3d070401	0.032962803
14	0x3d13c410	0.03607565
15	0xbcdece1a	-0.027197886
16	0xbcc4db05	-0.024030218
17	0xbcc5f016	-0.024162333
18	0x37e8f533	2.7770735e-05
19	0x37ea5663	2.79352e-05
20	0x37f22748	2.886694e-05
21	0xbdfc17d5	-0.12309233
22	0xbde9851c	-0.11402342
23	0xbde9894f	-0.11403143
24	0x3e44a540	0.19203663
25	0x3e416477	0.1888598
26	0x3e53bdbb	0.20677845
27	0xbe33f90c	-0.17575473
28	0xbe165f0f	-0.146847
29	0xbe11be65	-0.14232786
30	0x3aa6c813	0.0012724422
31	0x3aa8352c	0.0012833229
32	0x3ab040af	0.0013447012
33	0xbcfe6b4a	-0.031057019
34	0xbd09d662	-0.033651717
35	0xbd112397	-0.03543433
36	0x3cade652	0.02122799
37	0x3caf1da7	0.021376444
38	0x3cb76b00	0.022389889
39	0xbeede2c1	-0.46462062
40	0xbef8de9b	-0.48607334
41	0xbf061548	-0.5237622
42	0xbde548fd	-0.11195562
43	0xbdc3e8d7	-0.09565895
44	0xbdc14eac	-0.094388336
45	0xbe391c70	-0.18077254
46	0xbe44a43d	-0.19203277
47	0xbe50fa6e	-0.20408031

decoder.cls.linear.weight f4 [2, 16]
0	0x3e448a26	0.19193324
1	0x3e1dd718	0.15414083
2	0x3e016f82	0.12640193
3	0x3e4c3396	0.19941553
4	0x3dbc45cc	0.09193
5	0x3e081cd6	0.1329225
6	0x3e546ff4	0.20745832
7	0xbd4e5178	-0.050370663
8	0xbe47a7e4	-0.19497639
9	0xbdfbcc34	-0.12294808
10	0xbd08b1c8	-0.03337267
11	0xbce10c40	-0.027471662
12	0xbade1600	-0.0016943812
13	0x3e12b4d6	0.14326796
14	0x3da43eb8	0.08019775
15	0xbe3d48c8	-0.18484795
16	0xbd99cebc	-0.075101346
17	0xbd70e548	-0.05881241
18	0x3e1bce1a	0.1521534
19	0xbdb9be30	-0.090694785
20	0xbdd63680	-0.10459614
21	0xbd24a3a0	-0.040195107
22	0xbd823cec	-0.06359276
23	0xbd7c2018	-0.061554044
24	0xbe7a7b1e	-0.24461028
25	0x3e6417be	0.22274682
26	0x3e083fca	0.13305584
27	0xbdf24584	-0.11829665
28	0xbe1fba0e	-0.15598318
29	0x3c0e7f80	0.008697391
30	0x3e11dcb2	0.14244345
31	0xbe37b758	-0.17941034
