logs/dr/2020_9_24/40/model.pth (torch_old, 3090 bytes, 2 tensors)

encoder.layers.0.linear.weight f4 [100, 3]
-0.120563604 -0.27135366 -0.01015564 2.054036e-39 -9.853226e-39 -2.029159e-39 -0.09799438 -0.22119318
-0.008647683 2.05104e-26 -7.619195e-26 3.0499393e-27 -0.0009089637 -0.0013606283 0.00018551968 0.0046661063
-0.01701901 0.00064210535 3.0593157e-22 -1.2672705e-21 -2.3759428e-22 -1.12147455e-26 -2.3441601e-26 -7.670436e-28
0.029550506 -0.08824325 -0.0017601671 -0.00031499667 -0.0011636873 -0.00033714602 -0.022593983 -0.16957898
0.052476916 -0.008282784 -0.06538683 0.019885326 0.046986885 -0.30968693 0.06670798 -0.049177073
-0.33750388 -0.11689641 -0.0015291716 -0.006111406 -0.0017348258 -0.007333789 -0.27825338 -0.10174327
0.004445361 -0.013318869 -0.00029902728 0.028892089 -0.09354152 -0.001689886 0.07933494 -0.33088502
-0.06452749 -0.030572215 -0.06844281 -0.0027171199 -0.0011411095 -0.0023051347 0.00017924716 -0.059874568
-0.13342297 -0.005073462 0.05741023 -0.23463365 -0.04419253 -2.6306027e-10 -2.4785807e-09 -9.0477115e-10
1.434987e-29 -5.511741e-29 -7.433153e-30 -2.051242e-34 -4.959988e-34 7.1968827e-35 0.0052460944 -0.021014202
-0.0039017405 1.4830152e-07 -5.327699e-07 1.8689514e-08 3.1396128e-30 -1.09733455e-29 -7.852161e-31 -0.02865764
-0.062828235 -0.002247821 -0.006126751 -0.11603131 -0.043727927 -0.0022663476 -0.035182424 -0.013406993
-0.0006456595 -0.0027686984 0.00088849664 -0.0047072754 -0.016475558 0.0051866486 -0.027712898 -0.21671347
0.066916235 0.03553021 -0.1058689 -0.0022998652 -4.3462165e-07 -9.233803e-07 -2.9323925e-08 -4.1577685e-05
-9.075833e-05 -3.4905663e-06 -5.566293e-06 -5.813371e-06 9.4190614e-07 2.5088068e-24 -9.3300236e-24 3.7894238e-25
-0.038607366 -0.14364937 0.048193872 -0.079580106 -0.17813678 -0.007292814 -0.0012323769 -0.008335232
0.0026378685 1.0479251e-26 -3.8956444e-26 1.5620068e-27 -2.3541685e-38 -5.3722655e-38 -2.0330215e-38 0.007675549
-0.02540639 -0.0001814186 -0.0014072382 -0.0024137497 0.00065090036 0.06441439 -0.23582858 0.008712222
8.2242586e-08 -2.9358154e-07 1.07464135e-08 0.043231722 -0.13543344 -0.0024908322 -3.73723e-05 -7.135377e-05
7.985645e-06 0.040027164 -0.14549054 0.0052240137 -0.047278833 -0.17629312 0.05964853 -0.0015935231
-0.0022588212 0.00035820776 -0.0076383385 -0.28650314 -0.104785554 -0.056539137 -0.12560324 -0.005087594
0.006294198 -0.022586867 0.00035181263 1.1769891e-30 -3.6076903e-30 -4.808716e-31 -0.004901772 -0.0061632358
0.0010768403 -1.3491104e-09 -2.8805176e-09 -9.108669e-11 1.4633075e-28 -5.445951e-28 2.1725397e-29 0.0013080674
-0.004702511 0.00016657484 -0.04425482 -0.32049474 0.09924675 -0.0039444836 -0.06300597 -0.023297407
-0.0006645509 -0.005022557 0.0015889113 0.03065716 -0.10730459 0.0026332582 -1.5988179e-06 -3.0999886e-06
1.8584623e-07 0.102138124 -0.4009115 0.040110327 0.015843764 -0.042118616 -0.0009212988 5.7158104e-07
-2.0511657e-06 5.1940923e-08 0.01007298 -0.036803834 0.0013376656 0.060869586 -0.25534433 -0.05255349
-0.042334985 -0.09547149 -0.0031138423 -0.020944543 -0.19888963 -0.07166651 -0.0017189201 -0.003079227
0.000579537 0.045632068 -0.18954375 0.03193127 -1.4713698e-05 -3.1514246e-05 -1.1009193e-06 -0.002083282
-0.004528045 -0.00015666148 0.023013428 -0.08435977 0.0035334842 -5.589737e-07 -1.1562169e-06 3.0610954e-07
-0.014940513 -0.03245533 -0.0010643698 -0.117496595 -0.2628864 -0.0072760885 -0.007743866 -0.017468618
-0.0008140498 -0.014808395 -0.03171247 -0.00039502783 -0.0037829962 -0.0046903654 0.0007918623 -0.0020358157
00000000: 0dea f6bd deee 8abe d763 26bc d15d 1600
00000010: c94a 6b80 7818 1680 47b1 c8bd 7780 62be
00000020: 03af 0dbc 0b20 cb14 63a4 bc95 1ea4 7113
00000030: 8547 6eba 1c57 b2ba 0f88 4239 23e6 983b
00000040: 736b 8bbc f652 283a 9eec b81b 2781 bf9c
00000050: ef9d 8f9b 8421 5e94 8527 e894 f815 7392
00000060: e713 f23c e1b8 b4bd 68b5 e6ba 2326 a5b9
00000070: de86 98ba f9c2 b0b9 0417 b9bc 1da6 2dbe
00000080: 09f2 563d 84b4 07bc 88e9 85bd 8de6 a23c
00000090: 5275 403d 498f 9ebe 329e 883d e66d 49bd
000000a0: 4fcd acbe 6367 efbd 7c6e c8ba 3042 c8bb
000000b0: 1863 e3ba 4850 f0bb 3a77 8ebe c75e d0bd
000000c0: 64aa 913b 6337 5abc c3c6 9cb9 1aaf ec3c
000000d0: b292 bfbd 2a7f ddba 5b7a a23d c369 a9be
000000e0: fd26 84bd 9572 fabc be2b 8cbd b511 32bb
000000f0: 4891 95ba be11 17bb 4bf4 3b39 093f 75bd
00000100: 08a0 08be 493f a6bb fd26 6b3d ce43 70be
00000110: 3a03 35bd 719e 90af a753 2ab1 9cb3 78b0
00000120: 6486 910f 3fbd 8b90 23c3 168f 1354 8887
00000130: e9d2 2488 7253 bf06 6ee7 ab3b fa25 acbc
00000140: 58b4 7fbb d03c 1f34 ab03 0fb5 ad8a a032
00000150: 35b7 7e0e de90 5e8f 34d1 7e8d 6dc3 eabc
00000160: 17ac 80bd 2e50 13bb eac2 c8bb d3a1 edbd
00000170: 0e1c 33bd 0187 14bb 721b 10bd 01a9 5bbc
00000180: 7a41 29ba 0d73 35bb 00ea 683a 7d3f 9abb
00000190: c0f7 86bc c3f4 a93b 2906 e3bc 23ea 5dbe
000001a0: 610b 893d 2088 113d cbd1 d8bd 56b9 16bb
000001b0: f255 e9b4 36de 77b5 fee3 fbb2 b363 2eb8
000001c0: 8255 beb8 793f 6ab6 18c6 bab6 7a10 c3b6
000001d0: 4cd7 7c35 0a1c 4218 0a78 3499 d18d ea16
000001e0: c222 1ebd d218 13be f066 453d e5fa a2bd
000001f0: 7d69 36be 8ff8 eebb b587 a1ba 7f90 08bc
00000200: 17e0 2c3b 1e90 4f14 29e7 4095 8682 f712
00000210: 522c 0081 3a3f 9281 5e60 dd80 2c83 fb3b
00000220: 1021 d0bc 2f3b 3eb9 1473 b8ba 0030 1ebb
00000230: 2fa1 2a3a b1eb 833d 0c7d 71be b5bd 0e3c
00000240: 579d b033 8a9d 9db4 3a9f 3832 bf13 313d
00000250: 10af 0abe 3b3d 23bb 34c0 1cb8 c3a3 95b8
00000260: 16fa 0537 86f3 233d 79fb 14be 342e ab3b
00000270: 73a7 41bd 2f86 34be 0452 743d c3dd d0ba
00000280: bb08 14bb d5cd bb39 074b fabb 8ab0 92be
00000290: cf99 d6bd 9595 67bd 239e 00be d5b5 a6bb
000002a0: 8f3f ce3b 1808 b9bc 7e73 b839 37fa be0d
000002b0: 6658 928e 400d 1c8d 0b9f a0bb f8f4 c9bb
000002c0: c424 8d3a 9a6b b9b0 9af2 45b1 3f4d c8ae
000002d0: 0b7f 3911 ce96 2c92 5b52 dc0f 7573 ab3a
000002e0: 8517 9abb 98aa 2e39 8b44 35bd e317 a4be
000002f0: e141 cb3d ba40 81bb 4609 81bd 34da bebc
00000300: 4235 2eba 4394 a4bb 0443 d03a b924 fb3c
00000310: 82c2 dbbd be92 2c3b f796 d6b5 6609 50b6
00000320: 068d 4734 cb2d d13d 4644 cdbe ba4a 243d
00000330: c8ca 813c 9284 2cbd 5183 71ba c06e 1935
00000340: c2a6 09b6 a615 5f33 2409 253c 9ebf 16bd
00000350: 9c54 af3a 6352 793d 7ebc 82be 5442 57bd
00000360: 7367 2dbd 8e86 c3bd 9b11 4cbb e493 abbc
00000370: b9a9 4bbe e4c5 92bd 634d e1ba dbcc 49bb
00000380: 12ec 173a b1e8 3a3d c217 42be 5dca 023d
00000390: dada 76b7 2a2e 04b8 4dc3 93b5 ac87 08bb
000003a0: ff5f 94bb 7f45 24b9 a886 bc3c d1c4 acbd
000003b0: 0792 673b 610c 16b5 4f2f 9bb5 6057 a434
000003c0: 0ec9 74bc e1ef 04bd 5382 8bba 0ea2 f0bd
000003d0: 0c99 86be 416c eebb 42c0 fdbb 591a 8fbc
000003e0: f565 55ba e99e 72bc efe4 01bd bd1b cfb9
000003f0: 25ec 77bb a3b1 99bb fb94 4f3a 526b 05bb

decoder.cls.linear.weight f4 [2, 100]
-0.0058488026 0.013255462 0.090689756 0.043933682 -0.010551728 0.05928109 0.04554861 -0.026856579
0.040453263 0.007926129 -0.037126698 -0.0078431 0.0941206 0.03003832 -0.08256062 0.06372752
0.021486498 0.0491919 0.00042019784 0.039771773 0.02989129 0.08780157 0.052774094 -0.043762315
0.05240483 -0.0059311017 0.06612044 -0.03508856 -0.029350683 0.092474334 0.017619886 0.014020525
0.010254905 0.0065186173 0.0042078346 -0.08689733 0.09652796 0.095469005 -0.06884233 0.024727538
0.08266009 0.019364372 0.043014176 0.07447887 0.04244811 -0.018075466 -0.08312939 -0.047159947
-0.05953592 0.00202284 -0.07080613 0.06349922 0.019697428 -0.043313395 -0.0579468 0.032757588
-0.023937978 0.019105554 0.009395443 0.012438737 -0.013838805 -0.019596241 -0.023448348 0.03856007
-0.06446974 0.0023435205 -0.040634383 -0.09503271 0.028139628 0.030812852 0.08898503 0.06570446
0.09787584 -0.07858162 -0.087044336 0.03110259 0.049008377 0.044055544 -0.06585088 0.07825736
-0.08692173 0.026647307 -0.03828757 -0.03598772 0.0790211 0.08649356 0.038828574 0.044817634
0.0039050132 -0.06131022 0.02607382 0.08600377 0.041901268 -0.089696996 -0.021052562 0.03189919
-0.018442154 -0.031106375 -0.087674074 0.010238722 0.026787765 -0.090888046 0.01909095 0.030091904
0.037314393 0.06514219 -0.05908959 0.03257703 0.009245515 -0.029041484 -0.0060923696 0.098671146
0.0032223016 -0.026994988 0.001466915 -0.048272084 -0.058027174 -0.02254349 0.05179345 -0.0077422857
-0.023416951 0.04153771 0.055476077 -0.018451415 -0.02525089 0.01691278 -0.054372262 0.073691495
-0.027900696 -0.03366039 0.09145375 -0.077414885 -0.026904106 0.09048977 -0.046459008 -0.02091273
0.09589172 -0.03309518 0.046166725 0.042909987 0.0192938 -0.08477155 -0.06476258 -0.079840615
-0.098549165 -0.027888194 0.011734828 -0.087569594 -0.09056266 0.005024895 -0.03718467 0.018453375
0.020740293 0.0994964 -0.0036191791 -0.080934145 -0.06605603 -0.0921306 -0.018333986 0.0114566535
0.033003546 0.019083358 0.022960462 0.013829842 -0.008869328 -0.044861924 0.023582503 0.013165727
-0.028106764 0.072874196 -0.09732318 0.029389389 -0.056451358 0.052927278 0.07820729 0.0708461
0.03834457 -0.047751393 -0.022046104 -0.028053902 0.012098834 -0.048540868 0.048620574 0.058240764
-0.040486097 -0.028807387 -0.070256315 -0.055536833 -0.049221255 0.069649406 -0.08546021 0.029938929
0.089670025 -0.06644384 -0.08816705 0.054190017 0.06124013 0.041845493 0.078800015 0.06321711
00000000: 50a7 bfbb 702d 593c 8dbb b93d cef3 333d
00000010: 28e1 2cbc bad0 723d 2e91 3a3d 5402 dcbc
00000020: 52b2 253d 98dc 013c 2a12 18bd 5880 00bc
00000030: 4dc2 c03d ec12 f63c 8b15 a9bd 9383 823d
00000040: 7404 b03c 727d 493d 004e dc39 bae7 223d
00000050: 94de f43c 4fd1 b33d a629 583d 1d40 33bd
00000060: 72a6 563d b059 c2bb 276a 873d 06b9 0fbd
00000070: d870 f0bc 2f63 bd3d 9457 903c 58b6 653c
00000080: 3004 283c 209a d53b e0e1 893b 3af7 b1bd
00000090: 73b0 c53d 4185 c33d 35fd 8cbd 6891 ca3c
000000a0: b149 a93d 08a2 9e3c a22f 303d 6188 983d
000000b0: 12de 2d3d 0013 94bc be3f aabd ca2a 41bd
000000c0: f0db 73bd a091 043b ce02 91bd e10b 823d
000000d0: 805c a13c 6369 31bd a059 6dbd d22c 063d
000000e0: 9419 c4bc 4083 9c3c 58ef 193c d8cb 4b3c
000000f0: 28bc 62bc 4c88 a0bc c016 c0bc 2af1 1d3d
00000100: b608 84bd c095 193b 3d70 26bd 82a0 c2bd
00000110: 1485 e63c 3c6b fc3c c93d b63d 0f90 863d
00000120: 2173 c83d 66ef a0bd 4d44 b2bd dcca fe3c
00000130: 02bd 483d 9673 343d d4dc 86bd 6545 a03d
00000140: 0504 b2bd 744b da3c 6dd3 1cbd dc67 13bd
00000150: d1d5 a13d 8923 b13d b60a 1f3d b292 373d
00000160: 40eb 7f3b 6d20 7bbd c498 d53c bf22 b03d
00000170: aaa0 2b3d 0fb3 b7bd 6c76 acbc baa8 023d
00000180: 0014 97bc ccd2 febc 778e b3bd 50c0 273c
00000190: 0472 db3c 8323 babd a064 9c3c 4c83 f63c
000001a0: fad6 183d 4569 853d ed07 72bd 7e6f 053d
000001b0: 807a 173c 68e8 edbc 80a2 c7bb 1914 ca3d
000001c0: 402d 533b 9824 ddbc 8045 c03a f3b8 45bd
000001d0: e7ad 6dbd 20ad b8bc 5e25 543d 00b3 fdbb
000001e0: e8d4 bfbc 7223 2a3d e23a 633d 6c27 97bc
000001f0: f4da cebc ac8c 8a3c 73b5 5ebd 91eb 963d
00000200: 0090 e4bc 7adf 09bd 1b4c bb3d b28b 9ebd
00000210: 0066 dcbc b352 b93d cd4b 3ebd 2c51 abbc
00000220: e162 c43d d08e 07bd 5219 3d3d 62c2 2f3d
00000230: 080e 9e3c b59c adbd 3ea2 84bd 7a83 a3bd
00000240: 25d4 c9bd c875 e4bc 7043 403c b057 b3bd
00000250: ea78 b9bd e0a7 a43b f44e 18bd 882b 973c
00000260: 8ce7 a93c c5c4 cb3d c02f 6dbb cdc0 a5bd
00000270: 6248 87bd f8ae bcbd 2831 96bc b0b4 3b3c
00000280: ba2e 073d b454 9c3c 9417 bc3c 9096 623c
00000290: a850 11bc 23c1 37bd 1830 c13c 10b5 573c
000002a0: 2840 e6bc 113f 953d 6051 c7bd 04c2 f03c
000002b0: 8a39 67bd 46ca 583d 252b a03d c317 913d
000002c0: 320f 1d3d f796 43bd 089a b4bc 4cd1 e5bc
000002d0: 303a 463c cad2 46bd 5e26 473d de8d 6e3d
000002e0: c0d4 25bd 78fd ebbc 8be2 8fbd 977a 63bd
000002f0: 3a9c 49bd 59a4 8e3d c305 afbd 7c42 f53c
00000300: eba4 b73d b513 88bd ed90 b4bd 5af6 5d3d
00000310: eed6 7a3d 2e66 2b3d e761 a13d f977 813d
