logs/dr/2020_9_24/29/model.pth (torch_old, 11094 bytes, 2 tensors)

encoder.layers.0.linear.weight f4 [500, 3]
000000 74 ee 6d 43 7a c2 25 44 f8 99 2a 43 dc 60 6d 43
       237.93146 663.0387 170.60144 237.37836
000010 9b bf 25 44 a3 03 2a 43 be 63 61 43 a4 25 26 44
       662.99384 170.0142 225.38962 664.58813
000020 4e e8 1c 43 b9 f6 60 43 6e 6a 26 44 90 4e 1c 43
       156.90744 224.96376 665.66296 156.30688
000030 dc 2b 88 43 bd 46 28 44 b2 28 4e 43 cc 38 66 43
       272.34265 673.1053 206.15897 230.22186
000040 48 8f 25 44 6d 6e 22 43 e9 47 62 43 cf eb 25 44
       662.2388 162.43135 226.2809 663.6845
000050 71 ff 1d 43 17 91 71 43 3d f9 25 44 33 63 2e 43
       157.99782 241.56676 663.89435 174.3875
000060 bd a9 89 43 bb 75 28 44 44 44 51 43 78 bb 7e 43
       275.32608 673.83954 209.26666 254.7323
000070 ed f8 26 44 ae f4 3b 43 6c 0f 61 43 fb 4b 26 44
       667.88947 187.95578 225.06024 665.1872
000080 34 79 1c 43 eb bd 60 43 ef 98 26 44 fd f8 1b 43
       156.47345 224.74187 666.3896 155.97261
000090 af 0c 61 43 3d 4e 26 44 0f 75 1c 43 c3 fe 6c 43
       225.04955 665.2225 156.45726 236.99516
0000a0 bc c2 25 44 c7 98 29 43 5c d7 79 43 42 88 26 44
       663.0427 169.59679 249.84125 666.129
0000b0 39 f3 36 43 06 8e 92 43 e4 ab 29 44 3e c0 63 43
       182.95009 293.10956 678.6858 227.75095
0000c0 bd e5 6c 43 68 a8 25 44 d4 8b 29 43 0f 94 6e 43
       236.89742 662.63135 169.5462 238.57835
0000d0 3b c9 25 44 0b 48 2b 43 99 47 9b 43 15 d3 2a 44
       663.1442 171.28142 310.55936 683.29816
0000e0 8f e9 75 43 ee dc 63 43 e2 b4 25 44 d4 d2 1f 43
       245.91234 227.863 662.8263 159.82355
0000f0 21 6b 61 43 4d 20 26 44 43 f3 1c 43 96 3c 6c 43
       225.41847 664.5047 156.95024 236.23666
000100 17 b3 25 44 c7 d0 28 43 12 ba 8c 43 29 e7 28 44
       662.7983 168.81554 281.45367 675.6119
000110 92 97 57 43 e2 67 69 43 67 82 25 44 79 e0 25 43
       215.59207 233.40579 662.03754 165.87685
000120 98 49 64 43 70 99 25 44 e7 55 20 43 ac 2c a3 be
       228.28748 662.39746 160.33556 -0.3187002
000130 1f 29 8b be ed bd 8f be b5 47 8c 43 a9 d6 28 44
       -0.2717981 -0.2807459 280.5602 675.35406
000140 53 ab 56 43 ed 56 7f 43 8c 06 27 44 07 95 3c 43
       214.66924 255.33955 668.1023 188.58214
000150 f8 e5 63 43 5e a7 25 44 aa e3 1f 43 3d f0 64 43
       227.89832 662.6151 159.88931 228.93843
000160 68 a4 25 44 d2 02 21 43 23 a4 86 43 8b 01 28 44
       662.56885 161.01102 269.28232 672.0241
000170 23 05 4b 43 3f f6 6c 43 e2 b1 25 44 83 98 29 43
       203.02007 236.9619 662.7794 169.59575
000180 18 94 60 43 7e bf 26 44 ae b7 1b 43 8c a7 60 43
       224.57849 666.99207 155.7175 224.65448
000190 3a af 26 44 30 d5 1b 43 ed 0f 61 43 ea 4c 26 44
       666.7379 155.83276 225.06221 665.2018
0001a0 40 79 1c 43 83 93 93 43 9f c6 29 44 ea e0 65 43
       156.47363 295.15244 679.10345 229.87857
0001b0 f0 ea 66 43 99 95 25 44 2a 2a 23 43 90 a5 68 43
       230.91772 662.33746 163.1647 232.64673
0001c0 7b 90 25 44 b2 07 25 43 3b 25 88 43 c4 44 28 44
       662.2575 165.03006 272.29086 673.07446
0001d0 7e 1b 4e 43 fe 65 62 43 c8 df 25 44 66 26 1e 43
       206.10739 226.3984 663.4966 158.15
0001e0 0f e1 60 43 f6 75 26 44 37 31 1c 43 29 2e 65 43
       224.87914 665.84314 156.19225 229.18031
0001f0 0d 9d 25 44 24 49 21 43 6f 87 6e 43 dc de 25 44
       662.4539 161.2857 238.52904 663.4822
000200 12 2f 2b 43 8f 16 63 43 dc c6 25 44 2e f4 1e 43
       171.18387 227.08812 663.1072 158.95383
000210 e2 b9 7b 43 da cc 26 44 8d d4 38 43 d1 9d 87 43
       251.7261 667.2008 184.83028 271.23294
000220 22 31 28 44 78 03 4d 43 29 30 88 43 c3 47 28 44
       672.7677 205.01355 272.37625 673.1213
000230 5c 31 4e 43 11 44 87 43 3f 25 28 44 48 49 4c 43
       206.19281 270.53177 672.582 204.28625
000240 16 6a 83 43 e2 83 27 44 fc 5c 44 43 fc 98 92 43
       262.8288 670.06067 196.36322 293.1952
000250 dc a3 29 44 d1 db 63 43 8c cc 61 43 81 06 26 44
       678.5603 227.85866 225.79901 664.1016
000260 ef 6a 1d 43 87 32 7a 43 c9 84 26 44 d9 56 37 43
       157.41771 250.19737 666.07477 183.33925
000270 f1 f3 60 43 8a 62 26 44 c1 4f 1c 43 f8 39 64 43
       224.9529 665.5397 156.31154 228.22644
000280 26 a5 25 44 f3 3e 20 43 17 bf 92 43 c7 b2 29 44
       662.58044 160.2459 293.4929 678.7934
000290 a2 25 64 43 1d c0 6d 43 aa bd 25 44 d2 6a 2a 43
       228.147 237.75044 662.9635 170.41727
0002a0 32 6e 83 43 36 82 27 44 b2 66 44 43 b8 73 63 43
       262.8609 670.03455 196.40115 227.45203
0002b0 55 c1 25 44 61 5b 1f 43 ea 45 87 43 46 22 28 44
       663.0208 159.35695 270.5462 672.5355
0002c0 d1 4e 4c 43 51 e3 b9 be 9a 21 9e be ea 2a a4 be
       204.30788 -0.3630624 -0.3088501 -0.3206399
0002d0 7b 37 64 43 f5 aa 25 44 2f 39 20 43 73 6d 81 43
       228.21672 662.6712 160.22337 258.85507
0002e0 c6 48 27 44 28 37 40 43 fb 32 61 43 2c 2e 26 44
       669.1371 192.21545 225.19914 664.72144
0002f0 47 af 1c 43 12 39 6d 43 75 b5 25 44 51 de 29 43
       156.68468 237.22293 662.83527 169.86842
000300 83 e2 60 43 53 74 26 44 a4 33 1c 43 77 d5 84 43
       224.88481 665.81757 156.20172 265.6677
000310 c2 b2 27 44 a0 4e 47 43 11 60 64 43 c5 99 25 44
       670.7931 199.30713 228.37526 662.40265
000320 d3 6d 20 43 ee 1f 61 43 ff 3a 26 44 e9 93 1c 43
       160.429 225.12473 664.9218 156.57777
000330 29 47 74 43 66 11 26 44 ed 3e 31 43 3e 4e 78 43
       244.27797 664.27185 177.2458 248.30563
000340 82 67 26 44 4b 61 35 43 f6 10 6d 43 80 a0 25 44
       665.6173 181.38005 237.06625 662.5078
000350 5f be 29 43 0c 59 9b 43 64 d3 2a 44 b9 0e 76 43
       169.74364 310.69568 683.303 246.05751
000360 03 2c 65 43 0d 99 25 44 f1 48 21 43 44 0d 88 43
       229.17192 662.3914 161.28493 272.10364
000370 ae 45 28 44 9e e7 4d 43 30 58 81 43 83 41 27 44
       673.08875 205.90475 258.68896 669.0236
000380 64 0d 40 43 ac d7 60 43 17 7a 26 44 f5 24 1c 43
       192.0523 224.84247 665.90765 156.14436
000390 e4 52 7a 43 c2 8c 26 44 60 75 37 43 1d f8 6d 43
       250.32379 666.19934 183.4585 237.9692
0003a0 26 bb 25 44 35 a8 2a 43 cb a4 61 43 0a fb 25 44
       662.9242 170.65706 225.64372 663.9225
0003b0 3f 46 1d 43 f7 d1 71 43 1c 08 26 44 f1 a0 2e 43
       157.2744 241.82018 664.1267 174.62868
0003c0 e2 82 bd be be 6b af be 3e c6 ab be 9a 48 6d 43
       -0.37013918 -0.34261888 -0.33549684 237.2836
0003d0 9e b7 25 44 d2 ed 29 43 51 58 64 43 2e 9a 25 44
       662.869 169.92899 228.34499 662.40906
0003e0 4f 65 20 43 c6 42 6b 43 ff 9b 25 44 11 d1 27 43
       160.39574 235.26083 662.43744 167.81667
0003f0 20 85 86 43 0f f5 27 44 3a c9 4a 43 52 39 6a 43
       269.04004 671.82904 202.78604 234.2239

decoder.cls.linear.weight f4 [2, 500]
000000 e4 a3 6e 3c 60 28 fd 3b cf 9c af bc fc 0a 44 bc
       0.014565442 0.0077257603 -0.021437077 -0.0119655095
000010 8d 9c 24 3d 9e ac 99 3c 82 3d a5 3c 58 2a 90 bb
       0.04018836 0.018759068 0.02017093 -0.004399579
000020 9d 63 2e bd 1c ff 13 3c ed 44 0d 3d 47 9a 02 3d
       -0.042575467 0.009032991 0.03448956 0.03188541
000030 78 ee 5e 3c 46 d3 0c bd 6e 2c b0 3c f2 87 f0 bc
       0.01360666 -0.034381174 0.02150556 -0.029361699
000040 33 da 0d 3d ce f5 da 3c 1f 85 07 3d 8b 23 0c bd
       0.03463192 0.026728537 0.03308594 -0.034213584
000050 58 ab 13 3c f1 e4 bb bc 81 b4 0e 3d 8e cf de 3c
       0.0090130195 -0.022936316 0.03484011 0.02719858
000060 d7 c6 33 3d 90 f5 12 3b fc 0b 7a bc 05 9f 14 3d
       0.0438908 0.0022424199 -0.015261646 0.036284465
000070 f2 be fd 3c 80 8f 96 3a a2 3e 9c 3c 7e bb 9f bc
       0.030974839 0.0011486858 0.019072834 -0.019498583
000080 62 1d d2 3c b6 09 ed 3c 66 76 ee 3c f4 c1 c0 bc
       0.025648776 0.028935295 0.029109191 -0.023529984
000090 1e b8 86 3c c4 9d 0e bc af 81 32 3d a8 64 44 bc
       0.016445216 -0.008704606 0.043580707 -0.011986889
0000a0 18 4d e1 bc a3 0c 1c bd 3f 3b 23 3d 8f 07 28 bd
       -0.027502581 -0.03809799 0.039851423 -0.041022833
0000b0 dc 50 22 bc 94 fd 93 bc 32 25 d1 bc 64 5e 23 bc
       -0.009906974 -0.018065251 -0.025530431 -0.009971235
0000c0 5c f1 32 bc a6 5a 1e bd 18 4f a0 bc 9e 8e a2 3c
       -0.010921802 -0.038660668 -0.019568965 0.019843396
0000d0 bc c0 8e 3c ab c1 23 3d 90 3f 19 bc 31 3e 1b bd
       0.017425887 0.039979618 -0.009353533 -0.037901107
0000e0 1e b7 c4 3c 04 b6 7a bc 74 1c 54 bc 52 0f ad 3c
       0.024013098 -0.015302185 -0.012946237 0.02112547
0000f0 f1 9d 36 3d 95 ab 1c 3d 94 83 11 3c a4 58 0d bc
       0.04458422 0.03824957 0.008881468 -0.008627091
000100 f8 5a 1d 3c 50 28 4c bc 7f 7d 02 3d b4 29 2c 3c
       0.009604208 -0.012460783 0.031857964 0.01050799
000110 3e 55 e9 3c 40 69 c5 ba 88 d2 b7 3b 66 80 f4 3c
       0.02848303 -0.0015061274 0.005609814 0.029846381
000120 d8 6f a5 bc ab 2a 21 3d c0 a8 d5 bc e7 7a 08 3d
       -0.020194933 0.039347332 -0.026081443 0.033320334
000130 d4 a5 f4 bc 70 f1 14 bd db ed 17 bd c0 41 0a bb
       -0.02986423 -0.036363065 -0.03709207 -0.002109632
000140 de 07 8e 3c 24 53 04 3c fd e1 05 bd 20 8d 81 bc
       0.017337736 0.008076463 -0.032686222 -0.015814364
000150 c1 23 f8 bc 78 80 75 3c 04 9d 2b 3c ae 6d 97 3c
       -0.030290486 0.014984243 0.010474447 0.018484917
000160 5d b8 16 3d 2b a1 97 bc 70 c2 ec bc dc 6d ef bc
       0.036796916 -0.018509468 -0.028901309 -0.02922719
000170 a0 b1 bb bc 45 0a 04 3d 33 3c 0c 3d 62 ac 7d bc
       -0.022911847 0.032236356 0.034237098 -0.015482994
000180 50 e0 87 bb f3 81 c2 bc 7c 56 2b bc 93 33 24 bd
       -0.004146613 -0.023743605 -0.010457631 -0.040088248
000190 9a bb a9 3c a2 e0 ac 3c 56 6c 04 bd 70 e3 17 bb
       0.020719338 0.021103207 -0.03232988 -0.0023176335
0001a0 18 48 44 bc 8a 11 c4 3c 1f 7a 01 3d 78 09 c7 3b
       -0.011980079 0.023934145 0.031610604 0.006074127
0001b0 d9 a9 16 bd 66 ae 10 bd 8d db 25 3d 94 dc 1e bc
       -0.036783073 -0.03532257 0.040492583 -0.009696145
0001c0 40 f1 73 bb c1 a2 a4 bc 29 07 cd bc 72 64 b6 3c
       -0.0037222654 -0.020097138 -0.025027828 0.022264693
0001d0 a0 d9 99 ba f8 15 fb 3b 86 d4 15 bd 77 13 15 3d
       -0.0011737831 0.007662531 -0.03657963 0.036395516
0001e0 9a 57 ee 3c 87 0a 36 3d 7f 08 0e 3d 4e b2 9d 3c
       0.029094506 0.044443633 0.03467607 0.019250061
0001f0 90 f2 ab 3b 5b 8a 1a bd 86 f6 04 bd 80 68 10 3a
       0.0052474216 -0.037729602 -0.032461666 0.0005508736
000200 da 93 d7 3c 00 3a 8b 3a 0a 69 b5 3c 80 96 34 3b
       0.026315618 0.0010622144 0.022144813 0.0027555525
000210 58 3a fc bb b0 01 0b 3c 00 be 89 b8 a1 db c1 bc
       -0.007697385 0.008484289 -6.568059e-05 -0.023664298
000220 a8 7d 83 bc 3f cb 0f 3d 2a 84 ff 3c 20 fd d8 bb
       -0.016051129 0.03510594 0.03119095 -0.0066219717
000230 04 06 06 bd 61 a7 12 3d f4 cc d5 bc d0 99 00 3b
       -0.03272058 0.035804156 -0.026098706 0.001962293
000240 a4 93 6a 3c 00 7e 5b ba 30 1f 52 bc 09 1d 16 3d
       0.014317427 -0.00083729625 -0.0128248185 0.036648784
000250 3a da d3 3c f9 9d 30 bd 61 09 c8 bc 40 9a a2 3a
       0.025860894 -0.043119404 -0.024418535 0.0012405589
000260 92 e2 95 3c fe 6c 95 3c e8 34 3d bc 3b 9d 04 bd
       0.018296514 0.018240448 -0.011548258 -0.03237651
000270 fb 51 2c 3d 8a 5e 07 bd 62 85 08 bd 25 a8 33 3d
       0.04207037 -0.033049144 -0.03333033 0.043861527
000280 04 11 89 3c c2 9e a2 3c ac a1 d9 bc 79 75 e3 bc
       0.016731746 0.019851092 -0.026566349 -0.027765976
000290 ac bf 55 3c 80 5c f7 bb 03 1d 10 3d 26 35 76 bc
       0.013046186 -0.0075488687 0.035183918 -0.01502732
0002a0 25 16 32 3d ce 8c 8a 3c f0 30 a1 bc 36 e2 11 bd
       0.04347815 0.016912844 -0.019676656 -0.035616122
0002b0 7a 3e dd 3c 0b 24 ae bc bc b3 12 bd 70 e6 cd 3b
       0.02700733 -0.021257421 -0.03581594 0.006283574
0002c0 da cb ba 3c 70 d2 22 bc b0 1a 97 3b 80 01 a1 bc
       0.022802282 -0.0099378675 0.0046113357 -0.019654036
0002d0 07 d2 0c 3d 3b 9f 27 3d 0e 25 ef 3c a2 1c 31 bd
       0.034379985 0.04092334 0.029192474 -0.043240197
0002e0 83 54 27 bd 16 6b cb 3c 37 c2 1e 3d 3e a1 c3 3c
       -0.04085208 0.024831336 0.038759436 0.023880597
0002f0 20 1d 92 3b f8 02 12 bc 76 7f 09 bd 80 85 cc bb
       0.0044590384 -0.008911841 -0.03356882 -0.0062415004
000300 d9 f1 2c 3d 50 28 98 bb 80 cd 2f bd 40 1e d4 3b
       0.04222283 -0.0046434775 -0.04292059 0.0064733326
000310 a5 6e 26 bd 0f 09 02 3d d0 29 2a bb f8 42 b2 3b
       -0.040632863 0.03174692 -0.0025964864 0.005440112
000320 9c 1d 05 3c 60 ad c7 bb dc ab 18 3c 35 2c 06 bd
       0.008124735 -0.006093666 0.009318318 -0.032757003
000330 f0 a6 e5 3b ec 75 8c 3c d0 25 02 bd 2a 04 2f bd
       0.007008426 0.017146073 -0.031774342 -0.04272858
000340 c0 6b 52 3a 20 06 46 3c b4 44 4e bc cc e3 e6 bc
       0.000802692 0.012086421 -0.012589622 -0.028184794
000350 10 07 3c bb 4a b7 b2 3c ff 7b d5 bc 62 dc 2a bd
       -0.0028690733 0.021815915 -0.026060103 -0.04171408
000360 0d f3 30 3d 45 cb 2c bd 78 e2 e1 bb 2e 01 ac 3c
       0.04320054 -0.04218604 -0.0068934523 0.020996656
000370 6a 8e e3 bc 88 88 82 bb 00 d5 e7 ba d0 71 cb 3b
       -0.02777787 -0.003983561 -0.001768738 0.006208636
000380 40 ce 2b 3c ed 80 af bc b2 cc f9 3c 60 94 b8 3b
       0.010486186 -0.021423781 0.030493114 0.005632922
000390 9f ef 34 3d 20 e5 47 3b e2 79 b4 bc 20 e1 c3 3a
       0.044173833 0.003050156 -0.022030775 0.0014944412
0003a0 bf 14 2d 3d 9e 61 f1 bc 20 8b 7e bb 8f 3a d2 bc
       0.042256113 -0.029465493 -0.003884025 -0.025662689
0003b0 d2 90 b9 bc 15 31 0a 3d 49 37 21 3d 8e 19 d1 3c
       -0.022652064 0.033738215 0.039359365 0.02552488
0003c0 86 35 f6 bc 84 03 be bc 0a 1a 1a bd ea f9 75 bc
       -0.030054819 -0.023195036 -0.03762249 -0.015013197
0003d0 1c 0b 5b 3c a1 7d 00 3d fd b2 a1 bc 55 47 d0 bc
       0.013369348 0.03136981 -0.019738669 -0.025424639
0003e0 24 65 74 3c 47 08 15 3d 90 16 76 3b 6d 31 04 3d
       0.014916692 0.036384847 0.003755007 0.0322737
0003f0 f1 ae 1b 3d e0 cc fe bb 61 20 2a 3d 2f a6 05 3d
       0.038008634 -0.007775888 0.041534785 0.03262919
